backend/weights/espcn_best.pth (torch, 250359 bytes, 8 tensors)

conv1.weight f4 [64, 1, 5, 5]
000000 17 cb bb 3b df 1c 1d 3c 1f de 25 bd 33 df 9f 3c
       0.0057309973 0.009589403 -0.040495034 0.01951561
000010 c8 0e 5e 3c 6a dc fd bb 6d 0d 91 bc 17 55 88 bc
       0.013553329 -0.0077472227 -0.017706597 -0.016642136
000020 df 74 2e bd 50 d6 35 bb f6 0b 52 bb 33 9e a1 3c
       -0.042591926 -0.0027746148 -0.0032050586 0.019728756
000030 74 8b ff 3c d8 29 d7 bd 9a b9 1a 3d df 6e a7 bc
       0.031194426 -0.10506028 0.03777466 -0.02043861
000040 c8 19 2c bd 13 2d 39 be 58 40 50 3d a9 a6 b7 3d
       -0.042016774 -0.180836 0.050842613 0.08967335
000050 48 4a 17 bb 81 ec 05 bd 2b cf 81 bd 12 e5 e0 3c
       -0.0023085047 -0.03269625 -0.06338342 0.02745298
000060 4b 64 c0 3c ae 34 0e bc 78 c7 26 3d da 50 a0 bd
       0.023485323 -0.008679552 0.040717572 -0.07827921
000070 b8 79 f5 bc 74 ac e4 3c dc 5a ff 3c 5b fc 22 3d
       -0.029965267 0.027914263 0.031171255 0.039791446
000080 8c ac 03 be 4f 92 6b bb 86 28 16 3c bb a1 22 3d
       -0.1285879 -0.003594536 0.009164935 0.03970502
000090 65 15 b9 3d cc 7d 26 bc 48 7d d7 bd 0e 45 f1 3c
       0.09037284 -0.010161828 -0.105219424 0.029451873
0000a0 59 fc 13 3c 99 a4 f4 3c a4 d3 75 bc 4a 02 76 bd
       0.009032332 0.029863643 -0.015004072 -0.060060777
0000b0 45 24 46 3a 30 b3 3b bb 7a 9e 9d 3c 95 ac e8 bc
       0.0007558505 -0.002864074 0.019240607 -0.028402606
0000c0 6e f2 9a 3c b3 25 a1 bb 0e 35 9d 3c 16 d1 0f bd
       0.018914428 -0.004917824 0.019190338 -0.03511151
0000d0 a7 75 f2 bc 34 7a 1f bd b5 9e 5d 3d bd 11 b6 bc
       -0.029597117 -0.0389349 0.054106433 -0.022225255
0000e0 65 ab e5 bb 32 c1 78 bc 7e 58 dc 3c 50 82 df bc
       -0.007008957 -0.01518278 0.026897665 -0.027283818
0000f0 88 84 b4 bd f5 13 95 3c 5a bb 66 bd 09 b1 1a bc
       -0.08814341 0.018197993 -0.056331016 -0.0094416225
000100 5f 0d 92 b9 43 d2 02 bd 01 3f 53 bc 4d 3c ec 3c
       -0.00027857252 -0.031938802 -0.012893439 0.028837347
000110 b0 ee f5 bc 97 93 50 3d c9 46 e7 3c 15 f0 83 bc
       -0.030021042 0.050922003 0.028231995 -0.016105691
000120 34 66 21 bc 2f 4c 8f 3b db 13 19 bd ce 71 01 bd
       -0.009851027 0.0043730955 -0.03737245 -0.031602673
000130 ef dd 41 3c ef 6f 2b bc 1a 92 eb bb ce b8 36 bc
       0.011832698 -0.010463699 -0.0071890475 -0.011152459
000140 78 2d d2 3c 8f 30 f4 bb 64 8a 92 3c d4 10 9c 3d
       0.025656447 -0.0074520777 0.017888255 0.07620397
000150 1e b6 f6 3c ff 80 bc bc 90 51 81 3d 71 ed 24 3d
       0.030116137 -0.023010729 0.06314385 0.040265504
000160 59 e0 84 3c 3a de d4 3b 48 03 87 3c 9e 92 c1 3b
       0.016220259 0.006496218 0.016481057 0.0059073707
000170 fb 80 56 bc aa b7 42 3d 1e 6e dc bc d3 c6 3f bc
       -0.013092275 0.047538437 -0.026907977 -0.011705118
000180 81 91 73 3c 20 1c 05 3d 87 55 30 bc 78 93 a1 bc
       0.014866234 0.032497525 -0.010762579 -0.019723639
000190 9b 6b e5 3c 01 a1 67 3a 0f 12 9a bb 59 0d 90 bb
       0.028005412 0.0008835942 -0.00470186 -0.0043961224
0001a0 0c c5 6a bc fd 68 be 39 b3 1e 8e 3d 31 13 9d bd
       -0.014329206 0.00036317846 0.06939449 -0.07669676
0001b0 ac 12 a4 bb 0f 77 f7 3c b4 11 79 3d cf 53 09 3d
       -0.0050071087 0.030208139 0.0608079 0.03352719
0001c0 39 aa a1 bd 59 c2 36 bc ff e4 44 bc b9 ae f7 3b
       -0.078937955 -0.0111547345 -0.012017488 0.0075586704
0001d0 de de 5b 3c 6d 98 fe bc 04 36 d8 bb 3f fb 56 3c
       0.013419835 -0.031078542 -0.006598236 0.013121425
0001e0 96 a8 af ba 52 f9 2a 3d 85 ba 4b bc d8 ee de ba
       -0.0013401683 0.041741677 -0.012434606 -0.0017008437
0001f0 36 0c fb bb 58 f4 f1 3a 8f 7b b5 bb d0 db 82 3c
       -0.0076613678 0.0018459661 -0.005538411 0.015973955
000200 db 7d 12 bc 50 80 fc bb d4 19 0d bd 41 b6 17 3d
       -0.008941139 -0.0077057257 -0.03444846 0.037039045
000210 10 8d af bc a2 83 42 bc 23 ff 46 3d 43 b7 ac 3d
       -0.021429569 -0.011872204 0.04858316 0.08433392
000220 c7 ee fb 3a 9f a1 ac bc 82 35 e0 3c de 17 8d 3b
       0.0019220941 -0.02107316 0.027369265 0.0043058237
000230 20 ed 32 bd 82 2a ef 3d b5 95 7f bc 0d 25 9f 3c
       -0.04368317 0.116780296 -0.015599658 0.019426847
000240 b0 ff 1d bb 68 1f fb bb e1 7d 36 bd 4c bb 0e bc
       -0.00241087 -0.007663656 -0.04455364 -0.008711647
000250 9f 01 3d 3c 26 a9 6b 3b 78 f0 3f bd 81 23 37 bb
       0.011536031 0.0035958975 -0.04686019 -0.0027944746
000260 4c 16 b3 3d c3 02 84 bd 1a 35 23 3c 13 59 01 bc
       0.08744487 -0.06445839 0.009961391 -0.007894772
000270 fa 79 4e 3d ca 14 d2 bc 99 e5 19 3d 94 81 11 3c
       0.050409295 -0.025644679 0.037572477 0.0088809915
000280 b8 92 69 3c 2a 7f 66 bc b6 7d a5 3b ce cc 15 bd
       0.014256172 -0.014068404 0.0050503863 -0.03657227
000290 7e a5 15 bd 2f d8 f7 3b 52 4f ef 3b 5b ff 07 bd
       -0.03653478 0.007563613 0.007303157 -0.03320251
0002a0 c3 c4 33 3d 9f 0e 80 3c da bd af b8 3d e4 a7 bc
       0.04388882 0.015631972 -8.380013e-05 -0.020494575
0002b0 47 67 97 ba a1 6e 86 bd 0b b4 0f bd c4 0f 6b 3c
       -0.0011551165 -0.065640695 -0.03508381 0.014347021
0002c0 1c a7 ab bb b7 d4 67 3c 6a e4 bf bb 80 f1 55 bc
       -0.005238427 0.014149836 -0.0058560865 -0.013058066
0002d0 b0 07 8f 3a a4 6c a7 bd 75 3a 0a bd 2c 21 ba bc
       0.0010912325 -0.081750184 -0.033747155 -0.022720896
0002e0 3f 3b ce 3c 2b e7 f5 3d 26 d3 75 3d 40 84 0e 3d
       0.025174735 0.120069824 0.06001582 0.034794092
0002f0 27 bf 9e 3d 8e 81 9a 3c 55 ac 99 3d b5 e5 bf be
       0.07751303 0.018860605 0.07503573 -0.3747994
000300 ef 3f 37 be 65 1a 8d bd c9 cd 55 bd 86 2a 8a 3c
       -0.17895482 -0.068898 -0.052198205 0.01686598
000310 d1 4f d5 3c 67 85 50 bd ae 48 fb 3c 7e 6a a6 3c
       0.026039036 -0.050908472 0.030674305 0.020314451
000320 ee bd db 3b 7a 95 3e bc 74 9e 55 bb f9 08 8d 3c
       0.006705991 -0.011632318 -0.0032595666 0.017216193
000330 05 c4 fc bb f4 1c f2 3c 21 45 15 3c e8 23 00 3d
       -0.007713797 0.029554822 0.00911072 0.031284243
000340 f0 52 1e 3d 62 58 0b bd f2 89 cf bc d9 63 e1 ba
       0.038653314 -0.034019835 -0.025334332 -0.0017195895
000350 81 1b 8b 3d 4c 0e 37 3c 8e 44 49 3d 42 79 45 3d
       0.06792355 0.011172842 0.049137644 0.048211344
000360 3b e6 40 3c 9d 96 6f 3d 5b 2d ac 3c c8 7c 9d 3c
       0.011773641 0.058493245 0.02101772 0.01922454
000370 b2 ba 50 bb d1 c2 20 bd c6 7d 50 bc 73 8a 1a bd
       -0.003184956 -0.03924829 -0.012725299 -0.03772969
000380 3d 07 c3 bb 36 ea 0f 3a e5 3f 29 bc b0 70 3d 3c
       -0.0059517906 0.0005489917 -0.010330175 0.011562511
000390 70 52 4e ba 33 04 90 3b 55 51 74 3c 0a cb 16 3d
       -0.00078705605 0.004395032 0.014911969 0.036814727
0003a0 89 30 71 bd 88 ca 70 bc bf f9 37 3c 1f 7f 0d 3b
       -0.058884177 -0.014696725 0.011228978 0.0021590663
0003b0 e0 55 91 bd dc 35 52 3d 6a dc 71 3d 91 f9 c8 bc
       -0.070964575 0.051320896 0.059048094 -0.024533065
0003c0 46 22 fe bc bc 87 c8 3d a8 dd 9f 3d 94 f8 a1 bd
       -0.031022202 0.09791514 0.078059494 -0.07908741
0003d0 3a 40 97 ba 0d a8 41 3c 60 5e 6e 3c 20 28 13 bd
       -0.0011539527 0.011819852 0.014548868 -0.035926938
0003e0 50 76 50 3d 1c ba 16 3c ed 02 ba 3c 97 92 f7 3c
       0.05089408 0.009199645 0.022706473 0.030221267
0003f0 4c dd c2 3c 8d 93 05 bd b9 8b f3 bc 3e a5 d1 bc
       0.023787163 -0.03261142 -0.02972971 -0.025591489

conv1.bias f4 [64]
000000 df ab ad ba b7 4a 99 bb e8 46 f2 bb e6 f0 95 ba
       -0.0013250074 -0.004678096 -0.0073937066 -0.0011439591
000010 4d 63 80 3b 9f 90 e8 b9 8f 76 04 bc 08 71 af 3a
       0.0039180876 -0.0004435824 -0.008084907 0.0013385126
000020 0b e3 c9 ba 18 00 53 3b 4a 24 43 bc 87 68 4a ba
       -0.0015402747 0.00321961 -0.011910507 -0.0007721264
000030 74 11 7b 3c 07 74 65 bb c1 43 90 b7 a6 d2 82 ba
       0.015323985 -0.0035011785 -1.7197688e-05 -0.0009980991
000040 e1 6b 6d ba 75 c2 f0 bb f9 8a ed bb cf 4e 33 bc
       -0.0009056908 -0.0073474 -0.007249233 -0.010944082
000050 ca 3b 29 bc ec 48 28 b9 9e 19 8e ba 61 55 50 ba
       -0.010329196 -0.00016048894 -0.0010841375 -0.0007947293
000060 2f 93 88 ba 54 12 e7 b9 7a 00 9c b9 e4 e4 80 3b
       -0.0010419841 -0.0004407341 -0.00029754994 0.003933536
000070 cd 4c 18 3b 49 9c 90 ba af 2b 6a 3b c3 d8 1b bc
       0.0023239136 -0.0011032905 0.0035731604 -0.009512129
000080 1a dc ec 3a 49 f8 f4 ba a1 9f d6 39 3f 84 d8 ba
       0.0018070966 -0.0018689717 0.00040936194 -0.0016518905
000090 85 95 16 3b b1 f2 12 bc 0d c0 1b 3a 0f ff 66 bc
       0.0022977304 -0.008968995 0.00059413986 -0.014098897
0000a0 5b f6 7e 3b 0f 93 43 bc 65 78 d5 3a 0e f7 09 bc
       0.0038904164 -0.011936917 0.0016286491 -0.008420719
0000b0 c8 38 73 3b 5c 9d 48 bc ae 81 c3 3a 49 6c 48 bc
       0.0037112702 -0.012244549 0.0014915967 -0.012232848
0000c0 46 36 32 ba 18 85 8b bb 4e 5b 43 3b 2c 42 c9 bb
       -0.00067982485 -0.0042578094 0.002980906 -0.0061419215
0000d0 64 87 ab bb 24 86 d5 ba 7c fa e4 3a cb 26 e3 bb
       -0.0052346457 -0.0016290587 0.001746967 -0.0069321147
0000e0 0e a1 d7 ba 16 bd 1b bc 0e 6d ae b9 27 0d 89 bb
       -0.0016451196 -0.009505531 -0.00033269118 -0.004182476
0000f0 49 a8 cc ba 84 12 b8 ba 86 06 19 38 b1 2c 02 bc
       -0.0015614118 -0.0014043604 3.6484118e-05 -0.007945226

conv2.weight f4 [64, 64, 3, 3]
000000 ae 3e 2a bd d5 97 57 3d b7 27 02 bc 70 30 44 3c
       -0.041563682 0.052635033 -0.007944039 0.011974439
000010 08 d9 9f 3d 95 41 53 3d 62 84 8e 3d 17 ff a5 3d
       0.07805067 0.051576216 0.06958844 0.08105295
000020 dc 4e 95 39 fc 9f e5 bc 1e e2 8c 3d 6c 24 dc bc
       0.0002847825 -0.028030388 0.06879066 -0.026872836
000030 e4 fc 6e 3d 78 57 14 bd 89 4d 48 3d 9d cc 2d 3d
       0.058346644 -0.03621623 0.04890207 0.042431463
000040 7d a3 ea 3d 21 f4 b1 3d eb a1 6e bb 06 d8 4b 3d
       0.11456964 0.08689142 -0.0036412429 0.049766563
000050 64 b9 49 bc a9 be c5 ba 35 0a 63 3c ce f5 58 3d
       -0.012312267 -0.0015086728 0.013857414 0.052968793
000060 bf ef b7 bd 7a 1d fb bc c8 a5 79 bd 28 22 9e bd
       -0.08981275 -0.030653704 -0.060949117 -0.077213585
000070 20 3a 75 bd 8c 69 ed ba d7 49 ee bb 9b 90 8c 3d
       -0.059869885 -0.001811312 -0.007271986 0.06863519
000080 11 fb 2e 3d fe 7a 8b bc 3c b5 bd 3c 1c 28 8e bb
       0.042719904 -0.01702642 0.023157708 -0.0043382775
000090 ea 31 12 be 79 c2 31 3d 07 2c a2 bd d0 fe 66 be
       -0.14276853 0.043398354 -0.07918554 -0.22558141
0000a0 d8 61 0e bd 31 97 02 3e 20 fb 16 be c5 e1 c9 bd
       -0.03476128 0.12752987 -0.14744234 -0.09857515
0000b0 2b d4 c5 3d d3 bc 47 be 3d 98 83 bc 68 b1 aa 3d
       0.096596085 -0.19505624 -0.016063804 0.08334619
0000c0 f7 5c 06 be e8 e8 b0 bd c1 3e 19 3c 9c 03 d3 bd
       -0.13121401 -0.08638173 0.009353341 -0.10303423
0000d0 a1 77 48 be 22 6d 4d bd 45 ff e9 3b a6 7e d1 3b
       -0.19576885 -0.050152905 0.007141026 0.0063932715
0000e0 0a c2 5b 3d b0 ef 25 bc 63 76 41 bc 62 fb 7d 3b
       0.053651847 -0.010127947 -0.011808011 0.0038754572
0000f0 d9 3d 7e 3c 90 bf a4 bd 8b bd d8 3d 71 39 2d 3c
       0.015517675 -0.0804435 0.105830275 0.010572777
000100 0e ae 9c 3c a4 df 57 3d b4 60 80 3d b7 6f bb 3d
       0.019125964 0.052703515 0.06268445 0.09152167
000110 38 56 b7 bb 76 40 3d 3d f2 42 2b 3c 77 fa a0 bc
       -0.005594995 0.046204053 0.010452973 -0.019650681
000120 c5 85 ed 3b 9e 3a 47 3d 33 89 52 bd 6b fe 44 bd
       0.0072486126 0.048639886 -0.051400375 -0.048094194
000130 04 5f 35 3d 2c b0 f4 3c c3 78 fd bd fe 56 9d bd
       0.044280067 0.029869162 -0.12376549 -0.07682608
000140 77 bd d9 bc db 1d 90 bd 7f 4a 70 3b 40 e0 ee 39
       -0.026579602 -0.070369445 0.0036665497 0.00045561977
000150 02 9b 55 be 89 0a 97 3d b5 42 6f 3d 66 cc 59 bd
       -0.20859912 0.07375056 0.058413226 -0.053173445
000160 63 d3 92 bd 57 df 78 bd 0a 57 96 bd a7 bb 22 be
       -0.07169225 -0.06075987 -0.0734082 -0.15891896
000170 ff be b9 bc 26 a0 86 bd 0e c7 97 bd 7a 41 ad 3d
       -0.022674082 -0.06573515 -0.074110135 0.08459754
000180 6c 69 85 bc 7e d3 29 be c3 90 50 3d 52 ad 2f be
       -0.01628562 -0.16584584 0.050919306 -0.1715596
000190 9f 88 37 bd b0 8e 15 bd 7e f5 22 be 20 fe 57 3e
       -0.044808026 -0.03651303 -0.1591396 0.21093035
0001a0 df 18 29 bc 28 4c 23 be 65 f4 01 3e 96 f2 3f 3d
       -0.010320871 -0.1594702 0.12690885 0.046862207
0001b0 50 95 cd 3c 57 11 8d bd 64 98 77 bd ef 64 c6 bd
       0.025095612 -0.06888073 -0.060448065 -0.0968722
0001c0 73 57 48 bd 07 8d e3 bd 38 35 9c bd ae c0 f1 bd
       -0.048911523 -0.11110883 -0.07627338 -0.11804329
0001d0 d1 d1 d9 3b 74 3a 5a 3c d8 7e ed bc 13 91 28 bd
       0.0066473265 0.0133196 -0.028991148 -0.04115398
0001e0 12 9a 53 3d 1d f4 8f 3c a7 6b 64 3d 77 b4 e1 bc
       0.051660605 0.017572457 0.055766728 -0.027551873
0001f0 f1 d6 65 3d ae f9 18 bd 25 dc b0 bd e8 81 7d 3d
       0.056113187 -0.037347488 -0.08635739 0.061891466
000200 c9 cf 5e ba 06 bd 32 3d 9c a1 73 3e da 16 d5 bd
       -0.00084995903 0.043637298 0.23792118 -0.10404749
000210 42 5d 70 bd 11 4b af 3c 61 f1 c6 bc e1 3d 09 bd
       -0.058682688 0.0213981 -0.02428502 -0.033506278
000220 af 92 e6 3d 27 41 30 39 e8 57 63 bd 5b d8 c3 3d
       0.112584464 0.00016808939 -0.055503756 0.09562751
000230 f0 dc 90 bd 0f 6d 63 bd bd 27 07 3d de a7 ab 3d
       -0.070733905 -0.05552393 0.03299688 0.083816275
000240 4a b8 d6 3c 6e cf 33 bd de 33 d7 3b 26 d0 55 bd
       0.026210923 -0.043898992 0.0065674623 -0.05220046
000250 60 a2 78 bd a7 ad 83 3d ff 20 8e bd 62 9e c5 bd
       -0.060701728 0.06429606 -0.06939887 -0.0964935
000260 b1 87 12 3c 9e 24 07 3d 1c 03 97 3d 53 0f c5 3d
       0.008943484 0.032993905 0.0737364 0.096220635
000270 bb ab 01 3c 30 8f 13 3d e0 b6 05 bd 04 4e 09 3d
       0.007914479 0.036025226 -0.032645106 0.033521667
000280 1c c4 11 3d 88 23 2b bd 44 dc 8e 3c b7 cf 87 3d
       0.035587415 -0.041781932 0.017439015 0.06631415
000290 c8 04 43 3d c6 1f c8 3d f3 dd 55 3d 7e 19 82 bd
       0.04761198 0.09771685 0.05221362 -0.063525185
0002a0 c1 29 24 3d 19 e2 bc bd 88 4a 40 bd 05 f0 02 bd
       0.040078882 -0.09222812 -0.04694608 -0.03196718
0002b0 40 a8 25 3d 0e ee 06 be 5f a9 3b 3d 9f fe cf 3d
       0.04044366 -0.13176748 0.04581582 0.10155987
0002c0 89 ee ad 3d 36 ee 8d 3d e6 f7 2d bd e5 2e 1b 3d
       0.084927626 0.06930201 -0.042472742 0.03788652
0002d0 93 db c6 3d 57 4b f3 3c d0 ad 29 bd a9 6a 23 3d
       0.09709849 0.02969901 -0.041425526 0.03989664
0002e0 18 a7 94 bd af 52 54 3d c5 58 b8 bc 40 b7 9e bc
       -0.07258433 0.051836666 -0.022503266 -0.01937449
0002f0 48 6d 19 bd d1 50 ab bd 4e 41 82 3d 0d 5a 0c 3d
       -0.037457734 -0.08365024 0.06360112 0.034265567
000300 dc 9d 9a bc b6 e2 3b bd ab cd d2 bc 37 9b 75 3d
       -0.018874101 -0.045870505 -0.025732836 0.059962478
000310 c9 71 63 bd a4 b7 8f bd f4 cd b8 bd 00 ad 8f bb
       -0.055528436 -0.070174485 -0.090236574 -0.004384637
000320 60 51 a6 39 3c 4f 9c 3d 8e bf 74 3c d6 28 3b 3d
       0.00031722616 0.076323 0.014938248 0.04569324
000330 af a8 90 3c 18 a0 b9 3c bf 08 70 3d 4f ab 4b 3d
       0.01765856 0.022659346 0.05860209 0.04972392
000340 38 64 1e 3d d0 f4 63 bb 7f 98 b9 bc 87 a2 b4 bc
       0.038669795 -0.003478337 -0.022655724 -0.022050155
000350 e9 5e be 3c 76 e9 62 3b 3f f5 60 3c 66 e2 d9 3b
       0.023238616 0.0034624017 0.013730346 0.0066493033
000360 04 87 61 3d 53 4e ab bb 3f 46 c4 3d 5a 39 1a bd
       0.0550604 -0.005227843 0.09583711 -0.03765235
000370 30 bd ce 3c a7 38 74 3a cb a5 3a 3d 0b 06 9a bd
       0.025236696 0.0009316303 0.04556827 -0.07520684
000380 12 56 bb 3a 6b e9 e6 bd c0 4f 88 3d 45 5e 02 bd
       0.0014292619 -0.1127499 0.06655836 -0.031828184
000390 48 3e 72 bd d1 f5 d3 3c bb 65 d9 bc c5 76 0c 3d
       -0.059141427 0.02587405 -0.026537767 0.034292955
0003a0 01 8b 22 3d 07 8d 6d bd 90 13 15 bd 76 85 fc 3c
       0.039683346 -0.057995822 -0.03639561 0.030825358
0003b0 8a b4 21 bc d6 2d 90 bd 02 72 c7 3d 28 3c 04 3d
       -0.009869704 -0.070399925 0.09738542 0.032283932
0003c0 58 fc 95 3d 96 af 24 bc 53 02 2c bc 0e c9 06 be
       0.073235214 -0.010051629 -0.010498601 -0.13162634
0003d0 a6 9c d1 bc af a9 91 3d 35 04 9f bd 72 af 25 3d
       -0.025587391 0.07112443 -0.07764474 0.04045052
0003e0 c7 f3 e5 3c 0a f5 6e bd dd b9 8c 3c fb 17 b2 bd
       0.028070344 -0.058339156 0.01717847 -0.0869598
0003f0 a8 82 5c be 23 91 0c be 9c 10 c6 bb 26 d0 92 bd
       -0.21534216 -0.1372724 -0.0060444605 -0.071686074

conv2.bias f4 [64]
000000 6c 03 16 3b d6 88 9c 3b c7 98 1c bc cc 7c eb bb
       0.0022890223 0.0047770543 -0.009557909 -0.007186508
000010 82 8c 32 bc 10 b6 1c 3a c2 f2 de bb d5 0b c5 bb
       -0.0108977575 0.0005978057 -0.0068038413 -0.0060133734
000020 86 53 c9 bb 52 15 c9 bb 2c f1 0f 3b f4 47 1c 37
       -0.00614399 -0.006136575 0.0021963818 9.3150775e-06
000030 9d ed 97 bb 6b bc d1 bb 5d 23 24 bc 32 72 f0 bb
       -0.00463648 -0.006400635 -0.010018197 -0.007337832
000040 e8 c8 06 3b 08 63 46 bc b4 fa de ba 04 07 19 bc
       0.0020566527 -0.012108572 -0.0017011971 -0.009340052
000050 6c 33 f1 3a 0c 9a e8 3a f6 fa 4b 3b df cb bd ba
       0.0018402166 0.0017746105 0.0031124926 -0.0014480314
000060 c4 66 95 3a fd 4d 07 bb f1 ba ec bb a9 cc 40 3a
       0.0011398424 -0.002064585 -0.0072244336 0.00073547155
000070 ba 25 81 3b 26 8f 91 b8 79 07 33 bc 51 bd 0c ba
       0.003941265 -6.940802e-05 -0.010927075 -0.00053687865
000080 df 45 10 b8 fe 3c 1a bb b0 25 8c ba 0e cf cd b9
       -3.4397348e-05 -0.002353489 -0.0010692384 -0.00039254915
000090 2d 43 8d 3b 3c 54 13 3a 5d 1b 9a 3a e3 31 0e ba
       0.0043109865 0.0005620157 0.0011757422 -0.0005424304
0000a0 33 12 6f 3b ed 74 fd b9 e4 60 9e 39 7d 1f de ba
       0.0036479353 -0.00048343037 0.00030208298 -0.001694664
0000b0 d1 e0 e6 bb c8 2f 8a b6 6b 65 05 bc 1c 9b a6 3a
       -0.007045843 -4.118283e-06 -0.008141856 0.0012711021
0000c0 20 73 4e 39 20 0f 20 bc 0c 66 90 bb b4 f8 9a 3b
       0.00019688578 -0.009769231 -0.004406696 0.0047293548
0000d0 9d 6f 33 bb 9d 71 35 bb 3c c4 4b 3b e4 d2 8c ba
       -0.002737976 -0.0027686127 0.0031092307 -0.0010744003
0000e0 95 ef f2 ba 0f 93 eb bb e5 c8 d4 bb 56 43 4c ba
       -0.0018534536 -0.0071891616 -0.006493675 -0.0007792016
0000f0 29 34 4d 3b 76 0e be bb f7 51 3e bc 00 66 77 3a
       0.0031311607 -0.0058000637 -0.011616222 0.00094375014

conv3.weight f4 [32, 64, 3, 3]
000000 61 b7 b5 3d 3f 6e 35 bd 8a 1f a4 3d 4a b6 fc bc
       0.088728674 -0.044294592 0.08013828 -0.030848641
000010 de d7 cd bd 48 5a 84 bc 21 9a d4 ba a1 75 1f 3e
       -0.10050939 -0.01615633 -0.001622025 0.15572216
000020 4f 76 81 3d cd f8 ad 3e 61 ab d7 be ae c5 89 bd
       0.06321394 0.33978882 -0.4212294 -0.067271575
000030 38 2c 1b be 3e 75 87 3d 73 1d 8f be 9f 02 1d be
       -0.15153587 0.06614159 -0.27952155 -0.15333031
000040 64 f6 0c be 66 f2 94 3d bf 5f d9 3c f8 93 d1 3d
       -0.13765866 0.07272796 0.026534913 0.10233301
000050 2e 37 ab bd b3 67 9b bd c7 54 98 3d 01 03 16 bc
       -0.08360134 -0.075881384 0.07438045 -0.00915599
000060 2c 72 45 bd db 01 1b be 77 ae bd 3d 05 f1 97 bd
       -0.048204586 -0.15137427 0.09261792 -0.07419018
000070 d9 d8 2e 3e 3f f1 3e 3b f2 24 33 bd 85 60 15 3c
       0.17074908 0.0029135493 -0.043736406 0.00911725
000080 30 81 a1 bd 71 09 83 bc a2 dd b9 3d 51 1c 22 3e
       -0.07885969 -0.015995713 0.09075476 0.15831114
000090 8c cd 8c bd d3 e4 7e bd a4 95 65 bd 77 8d 20 be
       -0.068751425 -0.062229943 -0.05605091 -0.15678965
0000a0 7c b1 17 3a 8d cc ca bd ba 2f 22 3d bc 00 86 3e
       0.000578664 -0.09902296 0.039596297 0.26172435
0000b0 60 93 18 3e 7d a9 51 bd 2d b1 57 bd dd be 0f bc
       0.14899969 -0.051187027 -0.052659202 -0.008773533
0000c0 c0 26 dc 3d a6 5d b7 bd b6 dc 0e bd 2c 43 12 bd
       0.107495785 -0.08953409 -0.034878455 -0.03570859
0000d0 7a cd 1a 3c 84 ee 33 3d d8 be 08 3d ec 98 45 bd
       0.0094484035 0.043928638 0.033385128 -0.04824154
0000e0 9c 93 27 bd 5d e1 9b 3c f4 0c 19 3d 69 1e b7 3d
       -0.040912256 0.01902836 0.03736587 0.08941347
0000f0 29 8c 64 3e d3 9d 04 3e ec 4b 58 bd 84 c4 85 bd
       0.22319092 0.1295083 -0.05280678 -0.06531623
000100 55 47 88 bd ad 28 32 3e 75 87 01 be f6 7c 7a 3d
       -0.066542305 0.17398329 -0.12649329 0.06115433
000110 59 f9 24 bd c0 16 2a bd 33 d7 b9 3c ae 94 c8 3c
       -0.04027686 -0.041525602 0.022685623 0.024484958
000120 d7 99 eb bd a8 00 8c bd 1d 6c c0 3b bf d0 92 bd
       -0.11503952 -0.06836063 0.005872263 -0.071687214
000130 35 f5 be bd 28 d1 c7 bd a3 f9 dd bd 5f f4 ad bc
       -0.09324113 -0.0975669 -0.1083863 -0.02123469
000140 bc 2f f1 3c b5 a4 e7 bd 46 55 01 bd 96 3c 6d bd
       0.029441707 -0.11310712 -0.031575464 -0.057919107
000150 83 2f d3 bc 76 a2 e0 3d 3a 58 7c bd 07 8d 1b 3c
       -0.025779491 0.10968487 -0.061607577 0.009494073
000160 17 ea b2 bd 8e b0 1b 3d 2b 03 6f 3c a6 1b cb bd
       -0.08736055 0.038010173 0.014588158 -0.09917383
000170 66 3b 3e 3d c0 3e 92 be c9 db 8d 3d 74 5e 53 3c
       0.046443366 -0.285635 0.06926686 0.012900937
000180 62 27 4b 3d 6c 6a b8 3c 74 be 05 be e7 b5 44 3c
       0.049598105 0.022511683 -0.13060933 0.0120062595
000190 29 b0 51 be 9f 49 b3 3c 1e 24 a4 bc cf e2 1b 3e
       -0.20477356 0.021885691 -0.020036753 0.1522324
0001a0 c5 94 bf 3c a9 a0 e3 3b a8 b1 ce bd 2c fc 9b bc
       0.023386369 0.0069466424 -0.10092479 -0.019041143
0001b0 ff b3 5c bd 50 88 dc bc 1f dd 38 3d bc 54 3a bd
       -0.053882595 -0.026920468 0.045132753 -0.045490965
0001c0 4a c5 fc 3d 3b 3a df bc 08 ef e5 3d 3f 85 64 bd
       0.123423174 -0.027249446 0.11227232 -0.055791136
0001d0 a5 e5 09 3d 15 bb c1 3d 01 1e 42 3d 2b de 2f 3e
       0.03366627 0.09459511 0.047391895 0.17174594
0001e0 51 18 2d bd 7f b3 96 3c bf 6f 00 3e 5c 62 9e 3d
       -0.042259518 0.018396137 0.12542628 0.07733604
0001f0 62 18 7c 3d 4b 6a 77 bb db 1d c1 3d 22 66 50 3b
       0.06154669 -0.0037752565 0.094295226 0.0031799157
000200 3b d8 f6 bd 5f 08 38 bd f4 83 ce 3d 10 d4 25 3c
       -0.120529614 -0.04492986 0.10083762 0.01012136
000210 00 33 fa 3c 49 d5 e6 bc 98 6a 0d be 79 38 54 bc
       0.030541897 -0.028177874 -0.13810194 -0.012952917
000220 29 14 c5 bd dc 5c 96 bd 02 6c bd bd b2 23 bc bd
       -0.09622986 -0.0734193 -0.092491165 -0.09186496
000230 b8 c1 83 3d 88 91 5f 3d 60 ef cb bc 05 71 8e 3c
       0.06433433 0.05458215 -0.024894416 0.017387876
000240 d6 57 88 be 89 74 ac 3e 5a 89 00 be 5e 45 68 3d
       -0.26629514 0.3368266 -0.12552395 0.05670678
000250 2e eb 5e be 45 6f cd bc c1 a7 9e 3c 64 c2 b3 bd
       -0.21769401 -0.025077472 0.0193671 -0.087773114
000260 46 73 ee b9 1c 0e e7 3d 14 f6 cb bd 8a e2 01 bd
       -0.00045480783 0.11281988 -0.09959045 -0.031710185
000270 b7 3c f8 bc 3e 76 ee 3c f2 bc a5 bd 92 67 97 3c
       -0.030302389 0.029109117 -0.08092679 0.018482003
000280 6e 40 85 bd 85 b7 58 bc 8e b7 10 bd 64 ec d9 3d
       -0.065064296 -0.013227348 -0.0353313 0.10640791
000290 4f 7e 46 3d e6 97 94 3d 16 98 56 bd 17 d2 01 bc
       0.0484603 0.07255535 -0.052391134 -0.0079236245
0002a0 7a e9 11 be 05 74 17 bd 97 8b 19 3d b7 6f 38 3d
       -0.1424922 -0.03697588 0.03748664 0.045028415
0002b0 16 43 a5 bd 7d 97 a4 3d 69 d5 14 bd 1d 68 2a 3d
       -0.08069436 0.080367066 -0.036336336 0.041603196
0002c0 77 0e 38 bd b6 76 9c bc f5 3c d7 3d b8 c6 54 3d
       -0.04493567 -0.019099575 0.105096735 0.051947325
0002d0 ba 2b 08 3e 2d ea e1 bd 79 8a 07 3d 5f 0a e7 3b
       0.1329793 -0.110309936 0.033091042 0.007050797
0002e0 9c 2b 8c bd ae 57 4b bd 67 06 7a bb 75 54 02 3d
       -0.06844255 -0.049644165 -0.0038150789 0.031818826
0002f0 6c bf 9b 3d e6 57 a2 3d 00 9e 10 3e 1b 3d 9a 3d
       0.0760487 0.079269215 0.14122772 0.07531186
000300 13 27 eb bd 76 fa 1f 3c 9a ca 1b be b0 98 a7 3d
       -0.11482062 0.009764304 -0.15214005 0.0818342
000310 e7 35 2e bc dd 77 a9 bd a5 df 97 3e 4f cc 65 be
       -0.0106329685 -0.08274815 0.29662815 -0.22441219
000320 a4 3c 0f bd 92 d8 62 bf 26 b1 6f 3e 37 df cb 3d
       -0.03496994 -0.8861171 0.2340742 0.09954684
000330 9c 4c 14 3e 10 9b 31 be 8c e1 dd 3c b8 93 79 3c
       0.14482349 -0.17344308 0.027085088 0.015232973
000340 cb 52 28 be b3 72 e5 3d 46 96 c8 3c 68 e6 38 be
       -0.16437833 0.11203518 0.024485718 -0.18056643
000350 9d f5 4a 3e 5c 6a 63 3c dc 0c 41 bd 63 4f 90 3c
       0.19820257 0.0138803385 -0.047131404 0.01761598
000360 17 ff 34 be 96 c0 06 3e 17 b7 48 3e d9 b1 1e bd
       -0.17675434 0.13159403 0.19601093 -0.038743827
000370 73 b8 4f be 22 9a c1 bd 94 96 56 3d 29 0b a8 3d
       -0.20285206 -0.094532266 0.052389696 0.08205254
000380 a8 7f 12 3d fa f0 92 3c 8a be ab 3d d3 21 ea bd
       0.035766274 0.017937172 0.08385952 -0.11432233
000390 57 06 b7 3d 32 ef 3e bd 31 1d a6 bd d6 0e b6 3d
       0.08936756 -0.046614833 -0.081110366 0.088895485
0003a0 79 02 95 3d f2 13 ae 3d 6f 01 42 be 4c bb 86 3b
       0.07275862 0.08499898 -0.1894586 0.004111683
0003b0 2f 76 28 bd 06 86 2a be 07 43 35 3e ca ab 2d be
       -0.041128334 -0.16652688 0.1770135 -0.16960064
0003c0 82 e5 f5 bc a0 b1 31 bd fe 0e 4a be 0c 5f aa 3d
       -0.030016664 -0.043382287 -0.19732282 0.0831891
0003d0 86 44 12 3e 90 1d 3d bd 80 b1 38 bd 7d ed cc bd
       0.14283952 -0.04617077 -0.045091152 -0.10006235
0003e0 19 2f 01 3d 82 9a a5 bc 07 c1 f7 bd 8f be 96 bc
       0.031539056 -0.020215277 -0.12097364 -0.018401412
0003f0 5c 6f 36 bc c7 70 60 3e f9 e0 27 bc 19 fe 29 bd
       -0.011134949 0.21918021 -0.010246509 -0.041502092

conv3.bias f4 [32]
000000 a8 aa 07 ba b2 84 4c ba 1f f7 bc bb b9 20 d5 bb
       -0.0005175271 -0.00078017556 -0.005766764 -0.006504145
000010 f9 03 8f 3a d2 08 27 bc 44 af 02 bc f7 90 03 bc
       0.0010911218 -0.010194974 -0.007976357 -0.008030168
000020 96 95 0a 3b 03 e0 5a ba ff 7d cc bb d6 56 70 3a
       0.002114629 -0.00083494204 -0.006240606 0.0009168213
000030 24 65 f0 b9 93 83 12 bb cf ab 56 bb 0a 58 47 3a
       -0.00045851723 -0.0022356256 -0.0032756214 0.00076043664
000040 f6 c9 33 bc a3 86 be 39 e8 99 bd ba 1d ec ce bb
       -0.010973444 0.00036339936 -0.0014465423 -0.006314768
000050 f6 ad f6 ba 9f 62 8c ba 0d ef ff bb 1e 12 13 3a
       -0.0018820155 -0.0010710544 -0.0078104795 0.00056103047
000060 21 0d a8 ba e4 d4 14 3b ae 00 70 ba dc 12 88 3a
       -0.0012821296 0.00227099 -0.0009155375 0.0010381597
000070 8c 28 bb b9 a2 31 8e bc b6 2f c3 bb b4 46 a5 ba
       -0.0003569763 -0.017357651 -0.0059566153 -0.0012609572

conv4.weight f4 [16, 32, 3, 3]
000000 3b 4c 2e 3c ad 42 b7 3a 2e 7e 23 3c 85 cf 2e be
       0.010638292 0.0013981663 0.009978814 -0.1707135
000010 72 9d f5 bd b6 9d 80 bc 3e cb 0e 3e 06 5d 06 bd
       -0.11992921 -0.015700202 0.13944718 -0.032803558
000020 aa 85 a0 3d cc 3e 77 3d 90 77 2e bd 79 97 d7 be
       0.078379944 0.060362622 -0.042594492 -0.42107752
000030 8a 8a da bb e1 6c be bd 0c c1 25 3e 98 79 b7 bc
       -0.006669347 -0.09298111 0.16186923 -0.022396848
000040 3b 33 38 bd 35 d8 53 bd a1 d6 84 bd ee 0e ae bd
       -0.044970732 -0.051719863 -0.0648625 -0.08498941
000050 de f0 50 bd 01 05 dc bd 23 0e 1d 3e 37 54 d9 3d
       -0.05101096 -0.10743142 0.15337424 0.10611766
000060 a4 46 75 be 47 d0 06 3e 35 b3 d9 bd 66 3d b0 bd
       -0.23952729 0.13165389 -0.10629884 -0.08605461
000070 e6 68 94 3d 77 51 b1 3d ff fd 55 3e 33 7d 2a be
       0.0724657 0.08658116 0.20897673 -0.16649322
000080 42 5b 8b 3c 15 d7 5b bc b3 12 39 be 96 b1 e4 3d
       0.017011289 -0.013417979 -0.1807354 0.11166684
000090 6b 15 bd 3d f1 80 01 3e f4 97 9b 3d 2c ab 15 3e
       0.09232601 0.12646843 0.07597342 0.14616078
0000a0 c2 9e 37 3d 29 1c 72 3c 65 c5 00 bc 8a 5a 73 bd
       0.044829138 0.014777222 -0.0078595625 -0.059412517
0000b0 a0 b3 57 be aa 5c 38 3d bd d0 72 3d a8 9e 42 bd
       -0.21064615 0.045010246 0.0592811 -0.047514588
0000c0 19 27 38 be e5 36 e0 bb 5c 26 0e be 74 ba ac 3d
       -0.17983665 -0.0068424814 -0.1388182 0.084340006
0000d0 55 b1 91 3d e3 a5 f9 3b 8e 11 97 3d 04 65 2b bd
       0.071139015 0.007618652 0.07376395 -0.041844383
0000e0 fd 35 4f be f7 cf 94 3d 44 95 e3 3c b6 aa fb 3d
       -0.20235439 0.07266229 0.027781136 0.1228842
0000f0 c1 bf b7 3d af a1 d9 bd 15 5d 44 3e 07 af 32 3e
       0.08972121 -0.10626542 0.19176133 0.1744958
000100 35 a6 e7 bd 58 92 88 be c1 ed c9 3c aa 5f 52 3e
       -0.11310998 -0.2667415 0.024649503 0.20544305
000110 6b fe fe bc 50 d5 39 3c f6 b2 ea 3d 6b 67 48 3d
       -0.031127175 0.011342362 0.11459915 0.048926752
000120 96 7c 1a be 33 61 e9 3c fb 79 1f be d9 3a 3f 3d
       -0.15086588 0.028488731 -0.15573876 0.04668698
000130 39 bd e6 bd 3d 9a b6 3d 09 7e ee bd 6a d0 c8 3d
       -0.1126656 0.08916137 -0.11645133 0.09805377
000140 2e 96 3b bd 2d 24 f7 3e 84 c8 7e 3d 7e 1a 43 3c
       -0.04579752 0.48269787 0.062202945 0.011908172
000150 7f 4c 04 be f8 27 4e 3e 36 9d ae bc 84 7f e3 bc
       -0.12919806 0.20132434 -0.021315198 -0.027770765
000160 71 19 b8 bc 12 34 2c 3d 61 ae 88 bc 92 c5 49 3b
       -0.022473069 0.042041846 -0.016684713 0.0030787927
000170 e4 f4 92 3d 0b 25 da bd 20 e2 d8 bd 42 e6 23 be
       0.071756154 -0.10651597 -0.10590005 -0.16005805
000180 41 9d 39 be 82 27 30 3e 3e 54 c0 bc ea 14 80 bd
       -0.18126394 0.17202571 -0.02347767 -0.06253989
000190 a9 fe a0 3d 52 ef a0 3e 7f aa 0f bd 06 e6 ee bd
       0.078610726 0.31432587 -0.035074707 -0.11664967
0001a0 05 60 47 bc 23 8c 9c bd ca 4e ff bd 7d 8a 00 3d
       -0.012168889 -0.076439165 -0.124662 0.031382073
0001b0 42 8d 27 bd 44 32 d1 bd b8 7c a8 bc c0 43 47 3d
       -0.0409062 -0.102146655 -0.020567283 0.048648596
0001c0 aa 81 97 3d f4 ea bd bd 24 e8 79 3e 5f b8 98 bd
       0.07397778 -0.092733294 0.24404961 -0.07457041
0001d0 12 c9 ab 3d ad 61 a0 be 8f ca dc 3d 1a 79 57 bc
       0.083879605 -0.3132452 0.107808225 -0.013151431
0001e0 fd 0a ae be 52 95 80 3d b1 ff 12 bc 86 da 50 3d
       -0.33992758 0.062784806 -0.008972094 0.05098965
0001f0 f3 15 a2 bc f9 84 7f 3c da 9a 84 bd e2 b9 e5 bd
       -0.019785857 0.015595668 -0.06474848 -0.11217095
000200 b4 b8 df bd 7f 1d 0e be 56 3e b7 3c 79 d6 49 bb
       -0.10923901 -0.1387844 0.022368591 -0.0030798002
000210 b8 60 26 3e ae cf 11 3d 49 0e 02 3d 87 91 65 3d
       0.16247833 0.03559845 0.031751905 0.05604699
000220 50 76 88 3e bc 3b f8 bd a1 5c 92 be 91 34 29 3c
       0.26652765 -0.121207684 -0.28586295 0.010327474
000230 c5 ad 46 3c 2e 4c 19 3e 74 b6 52 3d 66 fe 24 ba
       0.012126391 0.14970466 0.051443532 -0.0006294012
000240 e4 0a 06 3e f3 43 f3 3d bb cf 56 bd ef 22 7f 3d
       0.13090092 0.11878195 -0.0524442 0.062289175
000250 fa 1a 93 3c f1 ef 84 3d 02 5b 01 3e 6c c7 88 3d
       0.0179572 0.06491078 0.12632373 0.06678662
000260 8d f3 f2 3d b2 17 1e 3d 1c fa 34 3d d7 a4 fd bd
       0.1186286 0.038596816 0.044183835 -0.12384956
000270 76 54 99 bc d4 21 0f 3e aa 92 30 be c1 cd 9a 3d
       -0.018717032 0.13977748 -0.17243448 0.07558776
000280 35 d0 90 3d 49 17 ae 3d b6 44 eb bd 66 1e c8 bc
       0.07070962 0.08500535 -0.11487715 -0.024428558
000290 b1 c5 d2 3d c3 10 28 3e 98 09 12 bd 87 fc f3 bc
       0.10291613 0.16412644 -0.03565368 -0.0297835
0002a0 55 ad 5f 3d 9d 8e 06 3e 3d ef 0e 3d e5 87 8f bc
       0.05460866 0.1314034 0.034896124 -0.017520854
0002b0 f6 f9 dd 3d 24 79 a1 bd 7f 91 ca 3b f6 eb 2f be
       0.10838692 -0.07884434 0.0061818953 -0.17179856
0002c0 f2 83 ac bc 76 b1 2e be e5 dd 1d be c5 f2 2b 3d
       -0.02105901 -0.17059883 -0.15416677 0.04197957
0002d0 eb 47 3b 3c cd 49 12 be f2 ae 72 bd a3 56 07 3c
       0.011430721 -0.14285965 -0.059248872 0.008260402
0002e0 42 75 95 bd e5 7c a8 3e e0 99 be 3c b2 95 93 3d
       -0.07297756 0.32907787 0.023266733 0.072062865
0002f0 59 9d 5d bd 54 b9 52 bc 7d 5a 9c 3d 49 93 6a bd
       -0.054105137 -0.0128615685 0.07634447 -0.05726937
000300 72 2f 5b 3e 67 8a d9 3b 80 55 b7 3d 10 f2 c0 bd
       0.21404818 0.0066388133 0.08951855 -0.0942117
000310 c6 13 84 3d 8a 25 87 3d 54 fd 51 bd 38 48 56 3d
       0.06449084 0.06598957 -0.051266983 0.052314967
000320 43 85 38 be f4 2b c3 3d 49 89 99 bd 06 dc 5a bd
       -0.18019585 0.09529868 -0.07496888 -0.053432487
000330 e0 fd a4 3e 2e bd bb bd ba 96 4b 3d f9 95 83 3e
       0.3222494 -0.091669425 0.04970429 0.25700358
000340 aa 5a 1e be 93 f6 e4 3d ba f3 26 bd bd b9 d5 3d
       -0.15464273 0.11179843 -0.04075978 0.104358174
000350 ad 11 bc bb 66 87 fa bd 8a 68 8f bd 5f 9d 8d bd
       -0.005739412 -0.122328565 -0.07002361 -0.06914782
000360 6e d7 d5 bd f8 12 06 bc c5 62 ff 3d 20 d0 0d bc
       -0.104414806 -0.008183233 0.12470011 -0.008655578
000370 5c 2b 92 3e bb 93 25 bc c3 c1 02 3d 52 0c 19 be
       0.28548706 -0.0101060225 0.031923067 -0.14946106
000380 ad b9 b5 3c 47 83 87 3d 09 05 cd bc d4 17 01 be
       0.022183264 0.06616836 -0.025026815 -0.12606746
000390 7a 35 94 3d 0a c9 c7 be 99 21 1a 3e de f7 af 3c
       0.07236762 -0.39020568 0.15051879 0.021480497
0003a0 7d 3e b1 3c 1e 90 bf bc 6f 0d a0 bd e9 ee 0b 3e
       0.021636242 -0.02338415 -0.07815062 0.13665356
0003b0 f4 3c 2e be df f9 c1 3d 7e a0 ef 3d 26 39 3a bd
       -0.1701544 0.09471487 0.11700533 -0.045464657
0003c0 9b fc 2b 3d 03 ad 04 3e 45 1f 3d 3d 12 c9 23 3e
       0.04198895 0.12956624 0.0461724 0.15994671
0003d0 c0 57 15 be 32 27 e5 bc 4e 24 9e bd 8e 43 8a bd
       -0.14584255 -0.027972791 -0.07721768 -0.06751166
0003e0 2f c0 bc bd a7 0e 00 3e c3 52 cb bc be 9a fa bc
       -0.092163436 0.1250559 -0.024819737 -0.030591365
0003f0 90 ac 00 be 4a 80 a5 ba 18 08 19 3e 52 c6 2b 3e
       -0.12565827 -0.0012626734 0.14944494 0.16774872

conv4.bias f4 [16]
000000 d9 7d f2 3b 19 bb cd 3b 65 a1 d5 3b d5 e7 bb 3b
       0.007400256 0.0062784073 0.006519484 0.0057344236
000010 5a ca dd 3b 5a 9f b2 3b 9e 6a b3 3b 7f c2 ae 3b
       0.006768507 0.005451125 0.0054753562 0.0053332443
000020 b2 13 dd 3b ff 49 d5 3b 25 cd a9 3b d1 6f 65 3b
       0.0067467326 0.006509065 0.005181926 0.0035009275
000030 ce b3 bf 3b bf 86 cb 3b 1d 0b dd 3b 11 c2 a9 3b
       0.005850292 0.0062111313 0.0067457096 0.005180605
