backend/weights/espcn_final.pth (torch, 250373 bytes, 8 tensors)

conv1.weight f4 [64, 1, 5, 5]
000000 15 21 1b 3c 01 b4 85 3c 5b bd 1c bd 5f a6 8e 3c
       0.009468337 0.016321184 -0.03826652 0.017413316
000010 83 47 1a 3c 8b 89 fd bb 45 35 f9 bb 8f b5 a8 bc
       0.009416464 -0.0077373437 -0.007605227 -0.020594386
000020 75 a9 43 bd b4 de 2f bb b3 bb ad bb 69 bb 92 3c
       -0.04776903 -0.0026835622 -0.0053019165 0.01791163
000030 15 e1 ab 3c 2c 73 ef bd e8 64 2f 3d b8 93 98 bc
       0.02098135 -0.11691889 0.04282084 -0.018625125
000040 2c 60 2f bd 9a 55 66 be 93 28 81 3d 1a f2 b2 3d
       -0.042816326 -0.22493592 0.06306567 0.087375835
000050 06 f6 08 3c 10 b4 28 bd 7e d3 76 bd 66 13 09 3d
       0.008359438 -0.041187346 -0.06026029 0.033465765
000060 8e b0 b0 3c 0e fe 59 bb 8a f9 37 3d e0 f4 ae bd
       0.021568563 -0.0033263 0.044915713 -0.085428
000070 47 b9 e5 bc 6d ce 04 3d 0f ff 0c 3d c9 85 18 3d
       -0.028042449 0.032423425 0.03442293 0.037236962
000080 0e 4e 11 be cf 68 2b 3b a4 42 16 3c ce e8 2f 3d
       -0.14189932 0.0026155 0.009171162 0.04294663
000090 64 54 cd 3d 5a fa 8d bb b8 0e ff bd f7 fe ee 3c
       0.10025862 -0.0043328227 -0.12453979 0.029174311
0000a0 a9 98 30 3c fe 76 fe 3c 3c a0 56 bc 2f 32 8f bd
       0.0107785845 0.0310626 -0.013099726 -0.06991994
0000b0 53 c0 0b bb 42 2c 7a bb 5d 7e 9a 3c 86 5d d4 bc
       -0.002132435 -0.0038173352 0.018859083 -0.025923502
0000c0 47 6f 8e 3c 6a 34 1a bb f7 cf 9d 3c ac b1 0f bd
       0.017387046 -0.0023529776 0.019264204 -0.03508155
0000d0 13 c4 f2 bc fb ef 1f bd 83 d7 5e 3d 0c 9d b5 bc
       -0.029634511 -0.039047223 0.054404747 -0.022169612
0000e0 c2 bf e5 bb 5d 10 78 bc 02 6e d8 3c 30 bc dd bc
       -0.0070113847 -0.01514062 0.026419643 -0.027067274
0000f0 65 81 b4 bd 7b 6a 95 3c 48 b1 66 bd f0 5d 1a bc
       -0.088137425 0.01823925 -0.056321412 -0.0094218105
000100 f8 fd 7e b8 94 6c 02 bd 27 e5 51 bc 3f f1 eb 3c
       -6.0794846e-05 -0.03184183 -0.012810982 0.028801559
000110 d3 5a f4 bc 26 1d 50 3d a1 83 e9 3c a5 66 82 bc
       -0.029828465 0.050809048 0.028505148 -0.015918085
000120 e8 d5 1f bc cf e6 97 3b e0 a9 17 bd 1e b0 eb bc
       -0.009755589 0.004635669 -0.03702724 -0.028770503
000130 96 8c 37 3c d3 93 1c bc 38 8a ea bb 32 ba 46 bc
       0.011202952 -0.009556728 -0.0071575902 -0.012129353
000140 23 c4 c7 3c 85 54 13 bc 59 88 8c 3c 2b 3e 99 3d
       0.024385517 -0.008992319 0.01715486 0.07482561
000150 23 40 f0 3c ea 4c ba bc 1c 4f 81 3d ff e3 20 3d
       0.029327458 -0.022741754 0.06313917 0.039279934
000160 64 e1 8c 3c 1b 5c bc 3b 5a 3b 83 3c 40 9c 94 3b
       0.017197318 0.0057482845 0.016019512 0.004535228
000170 92 60 53 bc a4 8e 3d 3d 6f d6 e1 bc 0e f4 34 bc
       -0.012901442 0.04627861 -0.02756807 -0.011044515
000180 44 8d 75 3c a1 31 0b 3d e5 b1 31 bc 20 c0 92 bc
       0.014987294 0.033982877 -0.010845636 -0.017913878
000190 6d 46 b7 3c 1e 2f c5 ba 17 6c 16 bb 25 08 ca bb
       0.022372449 -0.0015043949 -0.002295261 -0.0061655217
0001a0 17 40 57 bc ee 3e 92 3b bd 41 8e 3d fb c0 a1 bd
       -0.013137839 0.004463068 0.06946132 -0.07898136
0001b0 b6 55 d9 bb 1d 97 e0 3c 4f 32 79 3d 0d 6d 14 3d
       -0.006632532 0.027415806 0.060838994 0.03623681
0001c0 15 d7 ae bd 19 8e 49 bc e4 af 34 bc 8c df 2d 3c
       -0.085371174 -0.012301945 -0.011028264 0.01061238
0001d0 b0 ac 46 3c 65 40 f5 bc 66 f2 0f bc 42 f0 30 3c
       0.012126133 -0.029937932 -0.00878582 0.010799469
0001e0 ab e6 42 bb 5a 4a 1f 3d df eb 44 bc 7c b9 ad 3a
       -0.002973954 0.038889267 -0.012019127 0.0013254131
0001f0 50 32 dd bb 3c e5 15 3b 92 8d 3e bb 54 b9 85 3c
       -0.0067503825 0.002287223 -0.0029076082 0.016323723
000200 1f 7f f3 bb 54 46 b5 bb 59 fa 11 bd 11 77 0e 3d
       -0.0074309255 -0.0055320654 -0.03563914 0.03478152
000210 d5 42 a9 bc c8 d8 25 bc 2f 2c 3f 3d 4d 09 a6 3d
       -0.02066175 -0.010122485 0.046672996 0.08107243
000220 93 24 5e 3a d2 cb e0 bc 37 51 ca 3c 82 1c 2d 3a
       0.0008474078 -0.02744094 0.02469693 0.0006603674
000230 ff 0d 39 bd 99 fa e8 3d be f7 69 bc 63 14 c1 3c
       -0.045179363 0.11375923 -0.014280258 0.023569291
000240 a6 3c 05 ba 29 83 cc bb 39 9d 3c bd 7a 79 2c bc
       -0.00050825847 -0.0062412214 -0.046048377 -0.010527009
000250 03 52 59 3c de a5 65 3a 70 68 40 bd 70 72 e6 ba
       0.013264182 0.0008760373 -0.0469746 -0.0017581712
000260 83 80 b8 3d 56 f8 8c bd 45 b0 24 3c 74 a8 fb bb
       0.09008887 -0.06883304 0.010051792 -0.0076799933
000270 c3 f5 4d 3d ae af b3 bc 59 14 19 3d c1 7f 0c 3c
       0.050283205 -0.021934357 0.03737292 0.008575381
000280 03 45 63 3c 8a 66 3a bc 72 d1 2e 3c 9c bb 17 bd
       0.013871434 -0.011376986 0.010670053 -0.037044153
000290 9d bd 1a bd 47 d2 11 3c 5a c2 d9 3b 58 44 0a bd
       -0.037778486 0.008900232 0.006645483 -0.033756584
0002a0 8d e6 1d 3d e5 12 42 3c 5d e6 61 3b 50 d4 86 bc
       0.03854995 0.011845325 0.0034469583 -0.01645866
0002b0 7c f9 c8 3a 10 fb 87 bd 73 94 0f bd 83 cd 63 3c
       0.0015333141 -0.06639683 -0.03505368 0.013903978
0002c0 3f f3 e8 bb 65 fa 73 3c 40 f3 48 bb f9 b6 98 bc
       -0.0071090753 0.014891242 -0.0030662566 -0.018641936
0002d0 be b8 80 ba 38 c6 9d bd 47 5a 08 bd 32 20 b7 bc
       -0.0009820682 -0.07703823 -0.03328922 -0.02235422
0002e0 65 7d 9a 3c 02 47 f5 3d d2 62 8a 3d c3 5f 26 3d
       0.01885862 0.11976434 0.0675713 0.04061867
0002f0 74 ed 99 3d d8 14 97 3c f7 7c 9d 3d 64 82 cf be
       0.07515994 0.018442556 0.07689851 -0.40529168
000300 2f 35 37 be 4b 2e 4c bd be 62 6d bd 0b 0c 9e 3c
       -0.17891382 -0.049848836 -0.057955496 0.019292852
000310 8e b0 08 3d 1e c1 54 bd b6 ea 14 3d ad 6e 79 3c
       0.0333715 -0.051941983 0.03635665 0.015224141
000320 1b df de 3b 76 5b 1b bc 40 80 8f bb 9a b0 9e 3c
       0.0068014986 -0.009482255 -0.0043793023 0.01937132
000330 8a 73 07 bc 00 ef f0 3c 9c 07 06 3c cd da ed 3c
       -0.008267293 0.02941084 0.008180525 0.029034996
000340 4f bc 19 3d 0e 75 0c bd 36 5b c7 bc de eb 78 bb
       0.0375331 -0.03429132 -0.024335485 -0.0037982385
000350 7a d6 89 3d a5 29 10 3c 49 c2 45 3d 83 62 4b 3d
       0.06730361 0.008798991 0.048280988 0.049654495
000360 72 a7 49 3c ed 46 7e 3d 99 b9 af 3c 8e e6 9f 3c
       0.0123079885 0.06207936 0.021450805 0.019519117
000370 65 44 99 bb 51 18 1c bd 4d ea 6a bc 55 de 18 bd
       -0.0046773427 -0.038109127 -0.014338088 -0.037321407
000380 dc 48 c9 bb 1c e3 89 3b be 31 0e bc 99 b0 00 3c
       -0.0061427187 0.0042079818 -0.008678852 0.007854604
000390 20 a1 85 39 2d 57 92 3a 68 2b 6a 3c 5f f2 15 3d
       0.00025487784 0.0011164896 0.014292575 0.036608096
0003a0 54 98 66 bd b6 88 75 bc af d3 91 3c c2 65 f3 3b
       -0.056297615 -0.014986208 0.017801134 0.007427902
0003b0 9f c6 90 bd 45 5e 5d 3d 22 77 78 3d 6b 8b f1 bc
       -0.07069134 0.05404498 0.06066049 -0.029485425
0003c0 18 78 ef bc 27 8e bf 3d fa 03 9f 3d d7 cb a7 bd
       -0.02923207 0.09353285 0.0776443 -0.08193176
0003d0 2a 36 03 3a 55 ae 62 3c fc c2 4f 3c 37 b6 17 bd
       0.00050053245 0.013835509 0.012680765 -0.037039008
0003e0 0c 72 56 3d 18 da a2 3b e6 ba bc 3c 86 10 fa 3c
       0.052354857 0.0049698465 0.023038339 0.030525457
0003f0 6f d9 c4 3c 94 7d 05 bd d9 46 f3 bc e2 71 d0 bc
       0.024029462 -0.032590464 -0.029696869 -0.025444929

conv1.bias f4 [64]
000000 5a e5 8a ba 85 76 ab bb d3 3a f3 bb 62 fc 9a ba
       -0.0010596917 -0.0052326345 -0.007422784 -0.0011824484
000010 7f 33 95 3b 5c f1 80 b9 15 39 fc bb 9d 03 7d 3a
       0.004553258 -0.0002459389 -0.0076972344 0.00096517225
000020 15 dd c5 ba c8 0a 5b 3b 55 d4 41 bc 4b 29 66 ba
       -0.0015095795 0.0033423174 -0.011830409 -0.0008779957
000030 28 6f 83 3c 46 ee 3f bb c1 1a 80 39 a7 e4 91 ba
       0.016044214 -0.002928631 0.00024433996 -0.0011130766
000040 14 66 62 ba 06 33 ec bb 9d 97 87 bb ee c1 38 bc
       -0.00086364266 -0.007208231 -0.0041379468 -0.011276705
000050 ca 3b 29 bc 6c 07 e2 b8 02 43 b6 ba fb d1 87 ba
       -0.010329196 -0.00010777902 -0.0013905468 -0.0010362262
000060 bc 82 c9 ba 2c 19 c5 b8 1e db 06 ba 49 de 8b 3b
       -0.0015374045 -9.398381e-05 -0.00051443453 0.004268442
000070 00 eb 32 3b ba 94 59 ba ee f8 7f 3b ce 70 14 bc
       0.0027300715 -0.0008300055 0.0039058286 -0.009060098
000080 8f 4f 2b 3b d5 db 11 bb b8 c2 a9 39 02 9e c2 ba
       0.002613995 -0.0022256274 0.0003237927 -0.0014848115
000090 db 9e 04 3b 52 93 10 bc f2 a5 4d 3a 6a 08 6b bc
       0.0020236287 -0.008824186 0.0007844857 -0.014345268
0000a0 63 67 70 3b e2 f8 46 bc 70 c9 00 3b a8 d0 ea bb
       0.0036682717 -0.012144299 0.0019651316 -0.007165987
0000b0 2b 25 50 3b 5c 9d 48 bc 13 b6 a4 3a 02 db 54 bc
       0.0031760435 -0.012244549 0.0012566469 -0.012991669
0000c0 0d a7 b8 b9 cd 72 07 bb b6 15 3f 3b ff 74 df bb
       -0.00035219677 -0.0020667792 0.0029157228 -0.006819367
0000d0 83 11 bc bb e6 3b 77 ba 57 d9 f3 3a 96 96 c2 bb
       -0.0057393922 -0.0009431228 0.0018604201 -0.0059383614
0000e0 c2 d6 c4 ba 16 bd 1b bc 3b 44 a9 b9 5d aa 95 bb
       -0.0015017616 -0.009505531 -0.00032285028 -0.004567428
0000f0 70 2a e4 ba f0 63 09 bb 96 06 14 b8 a3 0c eb bb
       -0.0017407667 -0.0020964108 -3.5292083e-05 -0.0071731373

conv2.weight f4 [64, 64, 3, 3]
000000 2f 7d 38 bd 71 7b 63 3d 67 ec 13 bc ab 73 51 3c
       -0.04504126 0.055537645 -0.009028531 0.012783925
000010 c3 44 bd 3d c5 8c 44 3d 60 d3 8e 3d 28 44 bd 3d
       0.09241631 0.04798581 0.0697391 0.092415154
000020 40 3e 0e 39 5d ad e5 bc 1e e2 8c 3d 0d d0 db bc
       0.00013565365 -0.028036768 0.06879066 -0.026832605
000030 33 ff 6e 3d 97 55 14 bd 7e c0 48 3d 46 c4 2d 3d
       0.058348846 -0.036214437 0.0490117 0.04242351
000040 7d a3 ea 3d c1 0f b1 3d c6 0f 72 bb 83 cf 4b 3d
       0.11456964 0.08645583 -0.0036935671 0.049758445
000050 85 cc 49 bc a9 be c5 ba dc f8 62 3c a0 f6 58 3d
       -0.012316828 -0.0015086728 0.013853278 0.052969575
000060 e7 ef b7 bd ae ef fa bc b1 a7 79 bd 10 ea a6 bd
       -0.089813046 -0.030631866 -0.06095094 -0.08150113
000070 5e 7e 74 bd c0 f5 50 bb 84 c1 31 bc 04 44 8c 3d
       -0.059690826 -0.003188476 -0.01084936 0.068489105
000080 e9 f1 41 3d 47 14 7d bc 4e 64 ad 3c ae 37 17 bc
       0.047349844 -0.015446729 0.021165993 -0.009229584
000090 fe 08 15 be 70 84 42 3d 9d 26 b7 bd 7f d0 68 be
       -0.14554211 0.047489583 -0.08942912 -0.22735785
0000a0 9f 79 0f bd 60 f9 ff 3d bf 49 16 be a4 a4 be bd
       -0.035028096 0.124987364 -0.1467657 -0.093087465
0000b0 cc 4b bc 3d 6d 70 4e be d0 dd 83 bc 57 be b8 3d
       0.091941446 -0.20160075 -0.01609698 0.090206794
0000c0 40 00 0b be 1c a9 ae bd 43 b8 23 3b af 22 d2 bd
       -0.13574314 -0.08528349 0.0024981655 -0.102605216
0000d0 2e de 49 be 7b 6a 2c bd f7 1c ea 3b b8 ac d3 3b
       -0.19713661 -0.042093735 0.007144566 0.0064597987
0000e0 eb c9 5c 3d b0 ef 25 bc 7d fb 41 bc da 90 85 3b
       0.0539035 -0.010127947 -0.011839745 0.0040761055
0000f0 3a 72 7e 3c 1f cf a4 bd e9 26 d9 3d 3a 06 2d 3c
       0.015530163 -0.08047318 0.10603125 0.010560567
000100 1f e6 6f 3c ec 83 56 3d a8 81 5c 3d 4c a2 c3 3d
       0.0146422675 0.052371904 0.053834587 0.0955244
000110 fe fb 7c bb 95 91 38 3d ee 59 68 3c a8 d3 81 bc
       -0.0038602347 0.045060713 0.014181597 -0.015847996
000120 f0 0e 9d 3b c4 2c 4d 3d b6 fe 5f bd dc c7 4b bd
       0.0047930405 0.05009152 -0.05468627 -0.049751148
000130 88 e7 38 3d cf 0a ec 3c ee f4 fd bd 27 bf 98 bd
       0.04514268 0.028813748 -0.12400232 -0.074583344
000140 fb b9 bc bc eb 43 92 bd 54 bd 24 3c 18 48 be 3a
       -0.023037901 -0.071418606 0.010054905 0.0014517335
000150 12 20 58 be e5 31 a2 3d 51 40 38 3d 39 a5 54 bd
       -0.21105984 0.07919673 0.044983212 -0.05191538
000160 cd b2 ac bd 3b af 52 bd 0a 57 96 bd a7 bb 22 be
       -0.08432541 -0.051436644 -0.0734082 -0.15891896
000170 ff be b9 bc 26 a0 86 bd 0e c7 97 bd 7a 41 ad 3d
       -0.022674082 -0.06573515 -0.074110135 0.08459754
000180 6c 69 85 bc 7e d3 29 be c3 90 50 3d 11 0f 36 be
       -0.01628562 -0.16584584 0.050919306 -0.17779185
000190 e4 79 4f bd 5c b5 19 bd 22 ea 27 be f7 0b 5b 3e
       -0.050653353 -0.037526473 -0.16397908 0.21391283
0001a0 7b 88 9e bc ed b5 22 be c2 7e 06 3e b0 30 48 3d
       -0.019352188 -0.15889712 0.13134292 0.048874557
0001b0 f2 2c cb 3c 05 dd 8b bd e0 55 2b bd 6b 57 c6 bd
       0.024801705 -0.068292655 -0.041829944 -0.096846424
0001c0 fb 59 64 bd 7a c5 ed bd c4 6c 94 bd b4 fb f1 bd
       -0.055749875 -0.11609931 -0.07247308 -0.11815587
0001d0 5d 22 8d bb 04 f4 43 3c 46 37 01 bd 94 f6 0c bd
       -0.004307075 0.011960033 -0.031546853 -0.034414843
0001e0 d2 4d 50 3d 40 5f a7 3c f8 4a 58 3d 81 51 df bc
       0.050855465 0.02043116 0.05280587 -0.027260544
0001f0 39 26 64 3d d8 8c 13 bd 2a 0c b7 bd ae 72 52 3d
       0.055700514 -0.03602299 -0.08937867 0.0513789
000200 7c 2f 67 3c bc 18 32 3d c2 08 84 3e e2 e8 03 be
       0.014110442 0.04348062 0.25787932 -0.12881806
000210 6b 8b 6c bd 8d 23 31 3c 33 2f be bc 73 5a 11 bd
       -0.057750147 0.010811699 -0.023215866 -0.03548665
000220 8a 81 de 3d 15 47 49 bb 91 55 66 bd 54 30 cf 3d
       0.10864551 -0.0030712534 -0.056233946 0.1011664
000230 16 54 89 bd bc bd 5c bd 4c da 0e 3d af de a0 3d
       -0.06705491 -0.053891882 0.034876153 0.078549735
000240 cd c2 d1 3c 37 c1 25 bd bf a1 9f 3b d9 2c 5a bd
       0.025605584 -0.040467467 0.0048715766 -0.053265426
000250 bc 67 7f bd 43 3c 8a 3d a9 07 8e bd 42 38 c7 bd
       -0.06235479 0.06749775 -0.06935055 -0.09727527
000260 0b ad 1b 3c 9e 24 07 3d 0e 01 97 3d 53 0f c5 3d
       0.009501706 0.032993905 0.07373248 0.096220635
000270 bb ab 01 3c c2 8c 13 3d e0 b6 05 bd 04 4e 09 3d
       0.007914479 0.03602291 -0.032645106 0.033521667
000280 69 c5 11 3d 88 23 2b bd 03 38 8e 3c 15 12 8a 3d
       0.035588656 -0.041781932 0.017360693 0.0674173
000290 83 f0 3f 3d 2f 96 c7 3d d1 55 5d 3d 7a d8 83 bd
       0.04686023 0.09745442 0.05403692 -0.06437774
0002a0 f9 b1 23 3d 36 7c b9 bd 67 17 40 bd c9 f6 06 bd
       0.03996465 -0.090568945 -0.04689732 -0.032950196
0002b0 0d e9 27 3d 3c e9 00 be 50 6e 38 3d fd 15 c4 3d
       0.04099374 -0.12588972 0.045027077 0.095745064
0002c0 a2 cd b2 3d 0d f9 8c 3d a7 69 3f bd 48 e6 16 3d
       0.087306276 0.0688344 -0.046731617 0.036840707
0002d0 93 db c6 3d 57 4b f3 3c d0 ad 29 bd a9 6a 23 3d
       0.09709849 0.02969901 -0.041425526 0.03989664
0002e0 18 a7 94 bd af 52 54 3d c5 58 b8 bc 40 b7 9e bc
       -0.07258433 0.051836666 -0.022503266 -0.01937449
0002f0 48 6d 19 bd 6a 4a af bd 80 0f 7a 3d 7c cc 0f 3d
       -0.037457734 -0.08559115 0.06104994 0.03510712
000300 b4 88 9d bc a8 4b 31 bd c0 56 e8 bc 5e 6c 77 3d
       -0.019230224 -0.043285042 -0.028361678 0.06040608
000310 62 14 56 bd 3c 78 8a bd 81 2b ba bd fb e9 a6 bb
       -0.052265532 -0.06761214 -0.09090329 -0.0050938106
000320 83 e5 fe ba 99 12 9b 3d 5b 40 88 3c 46 42 3a 3d
       -0.0019447062 0.075719066 0.01663225 0.04547336
000330 ed 89 91 3c 06 61 bf 3c 4a bb 6b 3d ca 3b 4a 3d
       0.017765963 0.023361694 0.05755166 0.049373426
000340 d8 89 1f 3d d4 45 f8 bb 2d 3c b9 bc 01 67 ab bc
       0.038949817 -0.0075766835 -0.022611702 -0.02092314
000350 3a 84 d5 3c 2e 35 73 3b 1e 12 45 3c 02 7c 8e 3b
       0.026064027 0.0037110555 0.012028245 0.004348279
000360 5d cb 5c 3d 20 6d 3c bb 54 f0 b7 3d 72 a6 20 bd
       0.05390488 -0.0028751567 0.08981386 -0.039221235
000370 86 c9 e6 3c 5b 11 e7 3b 6b c1 38 3d 3a 30 92 bd
       0.028172266 0.0070516295 0.045106333 -0.07138105
000380 fd 76 93 3b 14 14 e7 bd b6 7c 83 3d f9 fc f8 bc
       0.0045002685 -0.112831265 0.06420271 -0.030394064
000390 9f 3f 73 bd 92 d8 09 3d e1 90 ca bc 9b 56 0d 3d
       -0.059386846 0.033653803 -0.024727287 0.03450642
0003a0 d2 a4 0c 3d 44 68 79 bd 15 7d 12 bd 79 13 31 3b
       0.034336872 -0.06089045 -0.03576382 0.0027019663
0003b0 03 9e 2c bc ad d8 91 bd 0f c9 c7 3d ee 72 e9 3c
       -0.01053572 -0.07121406 0.09755146 0.028497186
0003c0 58 fc 95 3d 25 8c 15 bb 07 3e d8 3a 7c c5 0b be
       0.073235214 -0.0022819128 0.0016497978 -0.13649553
0003d0 d8 39 c2 bc 8f 4d 9b 3d 8b 51 a5 bd c6 8c d7 3c
       -0.023709223 0.075831525 -0.08072194 0.026312243
0003e0 3d 08 15 3d 9c ed 6b bd 6c bc cf 3c f1 9f b6 bd
       0.03638481 -0.05759965 0.025358401 -0.08917225
0003f0 a9 21 64 be 94 69 0c be 78 db 8e bb a1 29 99 bd
       -0.22278465 -0.1371215 -0.004359659 -0.07478643

conv2.bias f4 [64]
000000 ab 26 33 3b f6 ce 96 3b 26 55 1e bc eb 4d f6 bb
       0.002733628 0.0046023084 -0.009663856 -0.0075166128
000010 82 8c 32 bc cb 70 8b 3a 3c 34 e2 bb c0 52 c6 bb
       -0.0108977575 0.0010638473 -0.0069031995 -0.006052345
000020 86 53 c9 bb 24 75 d2 bb 68 8a 25 3b cd c9 b5 b9
       -0.00614399 -0.0064226557 0.0025259499 -0.00034673364
000030 99 ab 6d bb 6b bc d1 bb e4 5a 24 bc 32 72 f0 bb
       -0.003626561 -0.006400635 -0.010031436 -0.007337832
000040 5e 3e 0d 3b 48 92 47 bc c2 cb 9e ba 04 07 19 bc
       0.0021552066 -0.012180872 -0.0012115168 -0.009340052
000050 0d 4b 08 3b 5f 90 e5 3a 74 ca 7f 3b 39 44 2d ba
       0.0020796687 0.0017514339 0.0039030584 -0.0006609592
000060 8f 5f 86 3a 67 64 ab ba ca 6c 06 bc da 50 89 3a
       0.0010251867 -0.0013076187 -0.008204648 0.0010476366
000070 94 1e 59 3b 7a 20 29 b9 79 07 33 bc d8 28 a9 b8
       0.0033129798 -0.00016129194 -0.010927075 -8.066156e-05
000080 d5 45 f0 39 47 fc 4f bb a4 09 10 ba c6 20 4c ba
       0.00045828396 -0.0031736062 -0.00054946006 -0.0007786866
000090 b3 c2 95 3b 0d 3d 94 3a d1 98 e8 3a a9 a2 cb b9
       0.004570329 0.0011309698 0.0017745738 -0.00038840369
0000a0 ea f7 5d 3b 72 ea f1 b9 f4 dd 1b 3a 80 06 73 37
       0.0033869692 -0.00046141777 0.00059458544 1.4485442e-05
0000b0 41 87 e6 bb b1 e1 31 3a ba 2e 05 bc bf 60 a8 3a
       -0.0070351665 0.0006785645 -0.008128816 0.0012846215
0000c0 cb 5a 99 3a 20 0f 20 bc 65 60 6e bb 40 49 ab 3b
       0.0011700032 -0.009769231 -0.0036373374 0.005227238
0000d0 f9 8c 28 bb 56 72 73 bb ef 45 43 3b 9c 8d f8 b9
       -0.0025718792 -0.0037147007 0.0029796322 -0.00047407753
0000e0 d2 e1 49 ba 0f 93 eb bb 66 86 ab bb 6b 3a 46 b9
       -0.00077011914 -0.0071891616 -0.0052345274 -0.00018904514
0000f0 a5 6e 35 3b a4 03 65 bb f7 51 3e bc 09 ad 38 3a
       0.0027684357 -0.0034944797 -0.011616222 0.0007044827

conv3.weight f4 [32, 64, 3, 3]
000000 da 8a b8 3d 0b da 53 bd b3 52 ad 3d 6e a7 1a bd
       0.09010859 -0.051721614 0.08463039 -0.03775733
000010 23 34 d3 bd 5c 3b 8c bc 1a da 22 3c 98 4b 33 3e
       -0.10312679 -0.017118149 0.009939695 0.17509305
000020 ce d3 81 3d 09 58 ae 3e d2 fd db be d2 13 bc bd
       0.06339227 0.3405154 -0.42967087 -0.09183468
000030 1a f6 42 be 91 81 54 3d 65 10 a7 be 85 20 12 be
       -0.19039193 0.051881377 -0.32629696 -0.14270218
000040 da b8 1c be d7 d9 32 3d 5b 68 d9 3c 02 e6 d4 3d
       -0.1530489 0.04366478 0.026539018 0.10395433
000050 5e ba ab bd b3 67 9b bd 28 5e 98 3d 32 fc 15 bc
       -0.08385156 -0.075881384 0.07439834 -0.009154366
000060 2c 72 45 bd a6 14 1b be 74 a2 bd 3d 47 02 98 bd
       -0.048204586 -0.15144596 0.09259501 -0.07422309
000070 43 e0 2e 3e 3f 64 3c 3b a7 f1 33 bd 6d e2 1d 3c
       0.17077737 0.0028746275 -0.04393163 0.009636504
000080 c9 ee a1 bd ed 61 83 bc c7 f5 ba 3d 16 14 22 3e
       -0.07906873 -0.016037906 0.091289096 0.15827975
000090 8c cd 8c bd d3 e4 7e bd a4 95 65 bd 77 8d 20 be
       -0.068751425 -0.062229943 -0.05605091 -0.15678965
0000a0 7c b1 17 3a 8d cc ca bd ba 2f 22 3d bc 00 86 3e
       0.000578664 -0.09902296 0.039596297 0.26172435
0000b0 60 93 18 3e bb 60 63 bd 7c 92 5a bd 15 45 d4 bb
       0.14899969 -0.05551217 -0.053362355 -0.006477962
0000c0 1f 5f df 3d 55 cf ad bd 66 15 16 bd d0 87 0d bd
       0.10906815 -0.08486811 -0.0366415 -0.03455335
0000d0 77 80 58 3c 55 a4 47 3d d8 be 08 3d ec 98 45 bd
       0.013214222 0.048740704 0.033385128 -0.04824154
0000e0 9c 93 27 bd 5d e1 9b 3c a4 0b 19 3d a3 1c b7 3d
       -0.040912256 0.01902836 0.037364617 0.08941009
0000f0 29 8c 64 3e d3 9d 04 3e ec 4b 58 bd 84 c4 85 bd
       0.22319092 0.1295083 -0.05280678 -0.06531623
000100 55 47 88 bd ad 28 32 3e c2 86 01 be f6 7c 7a 3d
       -0.066542305 0.17398329 -0.12649062 0.06115433
000110 5c 22 25 bd 39 22 2a bd 33 d7 b9 3c ae 94 c8 3c
       -0.04031597 -0.041536544 0.022685623 0.024484958
000120 d7 99 eb bd a8 00 8c bd 1d 6c c0 3b bf d0 92 bd
       -0.11503952 -0.06836063 0.005872263 -0.071687214
000130 35 f5 be bd 28 d1 c7 bd a3 f9 dd bd 5f f4 ad bc
       -0.09324113 -0.0975669 -0.1083863 -0.02123469
000140 bc 2f f1 3c 0c a6 e7 bd 15 63 01 bd bf a3 6d bd
       0.029441707 -0.11310968 -0.031588633 -0.05801749
000150 bf 1d d3 bc ab 9a e0 3d f0 4b 7c bd 0f ad 1d 3c
       -0.02577102 0.109670006 -0.061595857 0.00962378
000160 67 e2 b2 bd 4d ba 1b 3d c9 a8 67 3c 7d ee c9 bd
       -0.08734589 0.038019467 0.014139363 -0.09859941
000170 e8 95 3c 3d 10 a5 93 be 46 c0 85 3d 88 ff 83 3c
       0.0460414 -0.2883687 0.06530814 0.016113058
000180 86 1d 47 3d 66 a2 ad 3c c8 62 05 be c5 e5 fb 3b
       0.04861214 0.021195602 -0.13025963 0.007687303
000190 b6 86 52 be a4 7f 8e 3c 56 03 c0 bc 36 8c 21 3e
       -0.205592 0.017394848 -0.02343909 0.15776142
0001a0 ea dc bf 3c aa 03 ed 3b 59 2d c4 bd bf 44 9d bc
       0.02342077 0.007233103 -0.09578962 -0.01919782
0001b0 69 3a 59 bd 5e 7b e6 bc 86 cc 31 3d d6 35 34 bd
       -0.05303422 -0.028134998 0.04340794 -0.043996654
0001c0 5b 3a fd 3d 13 26 d5 bc 21 db e5 3d c0 0e 65 bd
       0.12364646 -0.026019132 0.11223436 -0.05592227
0001d0 ea b3 09 3d 15 bb c1 3d 01 1e 42 3d 2b de 2f 3e
       0.033618845 0.09459511 0.047391895 0.17174594
0001e0 51 18 2d bd 7f b3 96 3c bf 6f 00 3e 5c 62 9e 3d
       -0.042259518 0.018396137 0.12542628 0.07733604
0001f0 62 18 7c 3d 4b 6a 77 bb 8b 17 c1 3d 2d 86 51 3b
       0.06154669 -0.0037752565 0.094283186 0.0031970844
000200 3b d8 f6 bd 5f 08 38 bd f4 83 ce 3d 10 d4 25 3c
       -0.120529614 -0.04492986 0.10083762 0.01012136
000210 bd 9f fa 3c 49 d5 e6 bc 98 6a 0d be 79 38 54 bc
       0.030593747 -0.028177874 -0.13810194 -0.012952917
000220 29 14 c5 bd dc 5c 96 bd 02 6c bd bd b2 23 bc bd
       -0.09622986 -0.0734193 -0.092491165 -0.09186496
000230 b8 c1 83 3d 88 91 5f 3d 60 ef cb bc 05 71 8e 3c
       0.06433433 0.05458215 -0.024894416 0.017387876
000240 7e 03 8a be 55 cc a9 3e e3 28 dc bd f0 93 65 3d
       -0.2695579 0.33163705 -0.10749986 0.056049287
000250 f9 e2 77 be 6d 97 10 bd 8f d4 9e 3c e5 76 9c bd
       -0.24207677 -0.03530066 0.019388465 -0.07639865
000260 8c 6b e2 3b 1c 0e e7 3d 14 f6 cb bd 8a e2 01 bd
       0.0069097932 0.11281988 -0.09959045 -0.031710185
000270 b7 3c f8 bc 3e 76 ee 3c f2 bc a5 bd 92 67 97 3c
       -0.030302389 0.029109117 -0.08092679 0.018482003
000280 1b 40 85 bd d5 be 58 bc b2 0e 0a bd 46 39 d1 3d
       -0.06506368 -0.013229092 -0.03370542 0.10216002
000290 0d 82 4d 3d a9 47 97 3d 16 8a 51 bd 28 4f 82 bc
       0.050172854 0.07386715 -0.05115708 -0.015906885
0002a0 2e 00 0d be 5d c0 0c bd 35 c5 0d 3d b7 6f 38 3d
       -0.137696 -0.03436314 0.0346119 0.045028415
0002b0 16 43 a5 bd 7d 97 a4 3d 69 d5 14 bd 1d 68 2a 3d
       -0.08069436 0.080367066 -0.036336336 0.041603196
0002c0 77 0e 38 bd b6 76 9c bc f5 3c d7 3d b8 c6 54 3d
       -0.04493567 -0.019099575 0.105096735 0.051947325
0002d0 11 19 fd 3d 87 6c e8 bd 1e ce 03 3d d6 6d 7b b9
       0.12358297 -0.11348825 0.03217899 -0.00023978142
0002e0 5a 9b 88 bd 10 d9 4a bd 3f b5 af bb 51 59 f9 3c
       -0.06670256 -0.049523413 -0.0053621824 0.030438097
0002f0 e4 6e 9f 3d ba 9d 97 3d a1 b5 11 3e 70 01 a1 3d
       0.077848226 0.07403131 0.14229442 0.07861602
000300 f4 fc ef bd a1 0a 0a 3c c9 e6 15 be 52 0d a3 3d
       -0.11718169 0.008425386 -0.14638819 0.07961525
000310 15 69 16 bc 8d 9d a6 bd b8 a3 9d 3e 30 b6 6b be
       -0.009180327 -0.08135519 0.3078897 -0.23018718
000320 0c 7d 0f bd 1c 00 76 bf f0 a0 88 3e 46 ae b3 3d
       -0.035031363 -0.96093917 0.26685286 0.087734744
000330 22 8a 21 3e 47 c8 29 be 30 d7 21 3d 3a 5d 5b 3c
       0.1577535 -0.16580306 0.03951186 0.013388926
000340 fd d7 28 be bf 73 e5 3d d8 06 8a 3c c5 ad 50 be
       -0.16488643 0.112037174 0.016848966 -0.20378788
000350 43 54 4a 3e b6 9c 31 3c 65 bf 14 bd fb cc 97 3c
       0.19758706 0.010840585 -0.03631534 0.01853036
000360 77 d4 3c be 4f d9 06 3e 1f fc 45 3e d9 f2 38 bd
       -0.18440424 0.13168834 0.19334458 -0.045153473
000370 dd 0d 4d be b4 34 cf bd 21 cb 65 3d 78 79 b1 3d
       -0.2002482 -0.10117474 0.056101922 0.086657465
000380 15 d7 0c 3d 29 a3 89 3c 8d 66 d2 3d 48 05 f5 bd
       0.034384806 0.016801434 0.10273466 -0.11963898
000390 49 06 b1 3d 8f b0 0f bd 84 f5 a3 bd 8e 75 b4 3d
       0.08643777 -0.03508049 -0.08005813 0.08811484
0003a0 12 58 ad 3d 68 28 bf 3d 5b fb 41 be 02 ae 86 3b
       0.08464064 0.09333879 -0.18943541 0.004110099
0003b0 68 7c 28 bd a9 80 2a be 77 42 35 3e 1a ac 2d be
       -0.041134268 -0.16650642 0.17701136 -0.16960183
0003c0 d0 b7 f5 bc 80 ba 31 bd b8 10 4a be ac 29 b4 3d
       -0.029994875 -0.04339075 -0.1973294 0.08797011
0003d0 85 95 11 3e 5d 2e 39 bd 28 73 2b bd 59 20 ce bd
       0.14217193 -0.04521023 -0.04185787 -0.100647636
0003e0 53 6f 39 3d 7a 9d 8c bc 52 85 fb bd cf 61 2d bc
       0.045272183 -0.017164934 -0.12281288 -0.010582401
0003f0 7d af 88 bc 34 9a 6f 3e 45 87 1e bb 22 bf 82 bd
       -0.016685242 0.23398668 -0.0024189514 -0.06384112

conv3.bias f4 [32]
000000 da 5b 0e ba 1c 7e da b9 55 25 a6 bb 03 6e eb bb
       -0.0005430557 -0.0004167416 -0.0050703683 -0.0071847453
000010 0c 8b 93 3a d2 08 27 bc 59 49 1e bc b0 82 05 bc
       0.0011256649 -0.010194974 -0.009661042 -0.008148834
000020 7f 87 e4 3a d3 70 9a ba 10 88 c8 bb a4 81 33 3a
       0.00174354 -0.0011782892 -0.0061197355 0.0006847626
000030 5f 23 04 ba de 78 f8 ba 8f 0d 69 bb 1f 72 97 3a
       -0.0005040671 -0.001895692 -0.003556106 0.0011554396
000040 f3 f0 ef bb 3e f6 e4 39 60 21 c3 ba d3 c6 cf bb
       -0.0073224246 0.00043671014 -0.0014887266 -0.0063408404
000050 fe 47 f7 ba 90 78 5d ba a0 9d 01 bc b8 da 18 3a
       -0.001886606 -0.0008448446 -0.007911116 0.00058309315
000060 d9 f5 66 ba 51 a3 f6 3a 25 3d 3d ba c1 ac 8a 3a
       -0.0008810438 0.0018816983 -0.0007218889 0.0010580049
000070 6c df 9e b9 20 75 99 bc 1c 3a c9 bb 7b 1a 8c ba
       -0.0003030257 -0.018732607 -0.0061409604 -0.0010689044

conv4.weight f4 [16, 32, 3, 3]
000000 9b 3d 34 3c ac 36 55 3c b4 95 f7 3b cf 35 3e be
       0.011001016 0.013013523 0.007555688 -0.18575214
000010 76 2e e2 bd 46 b6 1a bc 3c c5 09 3e 7e aa c0 bc
       -0.11044018 -0.009442871 0.13454145 -0.023518797
000020 fb e0 9f 3d d3 81 27 3d e3 72 10 bd 32 fc da be
       0.078065835 0.040895294 -0.035265815 -0.42770535
000030 79 3c 47 bc 38 53 bf bd 7d 52 18 3e 93 1a 5a bc
       -0.012160414 -0.093420446 0.14875217 -0.013312
000040 6b 71 f6 bc 25 ea 39 bd ff 39 85 bd f0 1f b0 bd
       -0.030083379 -0.045389313 -0.065052025 -0.085998416
000050 81 6d 51 bd 08 e9 dc bd f7 19 20 3e d0 c3 d8 3d
       -0.05112982 -0.10786635 0.15634905 0.10584223
000060 37 11 75 be 33 0b 07 3e d2 49 da bd b3 a0 b9 bd
       -0.23932348 0.13187866 -0.10658611 -0.09063854
000070 3c 89 69 3d 0f 45 a0 3d e0 13 57 3e 89 52 15 be
       0.057015643 0.07825672 0.21003675 -0.14582266
000080 32 38 e9 3c f4 4d 88 bc 50 b7 3c be 3d 13 da 3d
       0.028469179 -0.016638733 -0.18429303 0.10648201
000090 87 01 b5 3d 23 39 00 3e 39 33 97 3d 49 34 0f 3e
       0.08838182 0.12521796 0.07382817 0.13984789
0000a0 94 35 34 3d 7e 4c 61 3c 65 98 23 bc 7a b9 73 bd
       0.04399641 0.013751147 -0.009985064 -0.059503056
0000b0 d7 ed 55 be aa 5c 38 3d bd d0 72 3d a8 9e 42 bd
       -0.2089151 0.045010246 0.0592811 -0.047514588
0000c0 19 27 38 be e5 36 e0 bb 5c 26 0e be 74 ba ac 3d
       -0.17983665 -0.0068424814 -0.1388182 0.084340006
0000d0 55 b1 91 3d e3 a5 f9 3b ad 0e 97 3d a7 b7 2c bd
       0.071139015 0.007618652 0.07375846 -0.042167332
0000e0 24 b2 4f be a7 7a 94 3d 77 ea e1 3c b5 8d fa 3d
       -0.20282799 0.072499566 0.027577622 0.1223406
0000f0 96 7d b7 3d ea ac da bd 08 35 44 3e 07 af 32 3e
       0.089595005 -0.10677512 0.19160855 0.1744958
000100 35 a6 e7 bd 58 92 88 be c1 ed c9 3c aa 5f 52 3e
       -0.11310998 -0.2667415 0.024649503 0.20544305
000110 6b fe fe bc 50 d5 39 3c f6 b2 ea 3d 6b 67 48 3d
       -0.031127175 0.011342362 0.11459915 0.048926752
000120 0c dd 20 be 10 28 cf 3c cb 15 1a be 0d 5c 51 3d
       -0.15709323 0.025287658 -0.15047376 0.051113177
000130 51 90 f7 bd e3 af ac 3d 02 68 f3 bd 73 fd ce 3d
       -0.12088073 0.08431985 -0.11885072 0.10106935
000140 4e 58 1a bd ad c7 0c 3f 84 c8 52 3d 25 1e 8d bb
       -0.03768187 0.5499218 0.051460758 -0.004306572
000150 2f ca 0b be 87 60 68 3e 9a 6f b5 bc 52 85 ca bc
       -0.13651346 0.22693072 -0.022147942 -0.024721775
000160 18 0d 8c bc c9 84 c6 3c 61 ae 88 bc 4b f9 4a 3b
       -0.017096087 0.024233239 -0.016684713 0.0030971344
000170 17 f2 92 3d 0b 25 da bd 29 c1 d8 bd 3b e8 23 be
       0.07175081 -0.10651597 -0.105837174 -0.16006558
000180 41 9d 39 be ac 23 30 3e ee 67 c0 bc a2 ff 6e bd
       -0.18126394 0.17201108 -0.023487058 -0.05834926
000190 fc 1b 98 3d 79 2b 9e 3e a2 ff 0d bd 62 2c f3 bd
       0.074272126 0.30892542 -0.03466762 -0.118737
0001a0 35 37 06 bc 72 93 a2 bd 33 4a f0 bd 75 6b e6 3c
       -0.008191873 -0.07938279 -0.117329024 0.028127411
0001b0 7e db 4b bd b8 04 ec bd ef 5d c0 bc 35 72 4a 3d
       -0.04976987 -0.115243375 -0.023482291 0.049425323
0001c0 58 a9 9f 3d f8 34 b7 bd ce 6d 76 3e ef a4 94 bd
       0.07795972 -0.0894565 0.24065325 -0.07258021
0001d0 0c 11 a0 3d 58 07 a8 be 71 d7 e2 3d 5d 82 98 bc
       0.078157514 -0.32818103 0.110762484 -0.01861685
0001e0 3d 89 a2 be 1a df 57 3d ae 23 83 bb 79 33 55 3d
       -0.3174533 0.052703 -0.004002056 0.05205104
0001f0 4c bd 96 bc b6 4c 75 3c e1 3c 84 bd 32 4d e5 bd
       -0.01840081 0.014971903 -0.06456924 -0.111963645
000200 b2 20 df bd 6d 52 0e be ef 7f b7 3c c7 1b 42 bb
       -0.10894908 -0.1389863 0.02239987 -0.0029618607
000210 1c 2a 28 3e b7 be 17 3d 6e 32 04 3d 3c 78 60 3d
       0.16422313 0.037047114 0.032274656 0.054802164
000220 ef fc 8d 3e ad 48 f0 bd 88 d0 8e be 82 de 34 3c
       0.27732036 -0.11732612 -0.27893472 0.011039378
000230 bd f7 5f 3c a6 62 19 3e 56 57 50 3d e3 31 37 bb
       0.013669905 0.14979038 0.05086454 -0.0027953319
000240 5b f0 07 3e b3 2d e9 3d 43 f3 5d bd 58 06 80 3d
       0.13275282 0.113856696 -0.05418707 0.0625121
000250 75 02 aa 3c 5c c6 69 3d 29 20 eb 3d 98 61 74 3d
       0.020753125 0.057073936 0.114807434 0.059663385
000260 ca d5 fb 3d 46 07 17 3d 1d dd 26 3d 1e a8 f1 bd
       0.122966364 0.03687217 0.040738214 -0.11799644
000270 fa bc bd bc 40 83 0d 3e 9e be 2e be be dc 9b 3d
       -0.0231614 0.13819599 -0.17064902 0.076104626
000280 eb 15 8b 3d 07 47 a5 3d 3a 49 d1 bd 0d b7 c1 bc
       0.0679129 0.08070188 -0.10219045 -0.023646856
000290 40 78 c6 3d c5 d9 23 3e 9a 12 e3 bc d1 38 b4 bc
       0.096909046 0.16001041 -0.02771883 -0.021999748
0002a0 dd ac 4d 3d 7a b5 fe 3d e2 01 dd 3c 0a 8a 8f bc
       0.050213683 0.12436958 0.026978437 -0.017521877
0002b0 40 fa dd 3d ad 7b a1 bd 40 94 ca 3b 16 ec 2f be
       0.10838747 -0.078849174 0.0061822236 -0.17179903
0002c0 23 85 ac bc 60 b1 2e be d3 dd 1d be 31 f3 2b 3d
       -0.021059578 -0.1705985 -0.1541665 0.041979972
0002d0 ed 53 46 3c d9 54 06 be 82 76 82 bd 79 bf de 3b
       0.01210497 -0.13118304 -0.0637026 0.0067977277
0002e0 b3 ea 99 bd 2a 4e aa 3e 44 47 c4 3c 16 4c 8d 3d
       -0.075154684 0.3326276 0.023959763 0.06899278
0002f0 50 c3 57 bd f2 d8 e7 bb 7e 52 a0 3d 49 b7 6d bd
       -0.0526765 -0.0070754224 0.07828234 -0.058036122
000300 6d 4e 5c 3e b2 83 b2 3b bb 67 b7 3d 8f ac c0 bd
       0.21514292 0.005447828 0.08955332 -0.09407913
000310 ca ed 83 3d d5 ba 89 3d b1 f1 51 bd 7e 36 56 3d
       0.06441839 0.067250885 -0.051255886 0.05229806
000320 0b 85 38 be 15 29 c3 3d 44 8c 99 bd 91 da 5a bd
       -0.18019502 0.0952932 -0.07497457 -0.053431097
000330 38 fd a4 3e 3f c7 bb bd 6f 90 4b 3d e4 20 80 3e
       0.3222444 -0.091688626 0.04969829 0.25025094
000340 a7 73 25 be c0 24 db 3d 50 0f 40 bd 9f 5e d6 3d
       -0.16157399 0.10700369 -0.046889603 0.10467266
000350 a0 dc cf 39 bf c9 ff bd 1e b7 90 bd 88 a7 88 bd
       0.00039646495 -0.12489652 -0.07066177 -0.06672579
000360 b0 f5 d4 bd 11 37 a3 ba b1 1b fa 3d 20 7e 9e bb
       -0.10398424 -0.0012452324 0.12212313 -0.0048368126
000370 3b 7e 96 3e 24 dd 9e bb 29 03 0f 3d 63 f6 16 be
       0.2939318 -0.0048481394 0.034915123 -0.14742427
000380 f8 29 a2 3c 6f 98 84 3d 94 d0 b9 bc a0 ab ee bd
       0.019795403 0.06474387 -0.022682466 -0.116538286
000390 2d 59 9b 3d 65 4e c7 be e8 d3 1a 3e ee a6 62 3c
       0.07585368 -0.38926998 0.15119898 0.013833744
0003a0 ca 56 c3 3c 19 ff ad bc b2 77 9d bd 98 77 0c 3e
       0.023845095 -0.021239804 -0.07688846 0.13717496
0003b0 58 92 31 be fb 8b c6 3d 24 d3 f4 3d 44 d9 30 bd
       -0.17340982 0.09694668 0.119543344 -0.04317595
0003c0 a3 cc 27 3d 17 94 05 3e 0a 15 2d 3d 7d 6a 25 3e
       0.04096664 0.13044773 0.042256393 0.16153903
0003d0 e6 50 1d be 2d 14 af bc 3b 15 aa bd 47 19 9e bd
       -0.15362892 -0.021371925 -0.08304831 -0.07719665
0003e0 fb 89 b5 bd 51 6f fc 3d bd 5a c0 bc 44 64 c6 bc
       -0.08864208 0.123259194 -0.023480767 -0.024217732
0003f0 f8 bc f6 bd e7 76 52 ba e0 e3 18 3e a7 5f 33 3e
       -0.12047762 -0.0008028582 0.14930677 0.17516957

conv4.bias f4 [16]
000000 3b 00 ea 3b 5d c8 d7 3b c4 6a ca 3b 7e 35 c0 3b
       0.0071411408 0.0065851645 0.0061772782 0.0058657518
000010 cf d8 d1 3b 5d 11 ab 3b 23 b0 b7 3b e7 40 9c 3b
       0.0064040194 0.0052205757 0.005605714 0.004768479
000020 45 64 eb 3b 5e 64 c9 3b 1f 12 9d 3b e6 17 7e 3b
       0.007183584 0.006145998 0.00479342 0.0038771569
000030 76 07 c0 3b 76 ac d7 3b df 24 d2 3b af a7 9d 3b
       0.0058602644 0.0065818382 0.006413087 0.004811249
